models/decoder.pt (torch, 110045 bytes, 4 tensors)

0.weight f4 [128, 8]
-0.19733444 -0.10026079 0.14855129 0.0020921503 -0.037593026 0.043512866 0.13986583 -0.22048743
-0.007847674 -0.13944913 0.14762267 -0.34186482 0.017034788 -0.10176386 0.040392153 0.34810358
0.27390966 -0.31716847 0.100209825 -0.17899372 0.24233447 0.23122764 0.3316088 0.34124792
-0.10886851 -0.40677714 -0.09021558 0.08227933 0.13496679 -0.12549005 -0.21006685 -0.0996479
0.20676793 0.041998424 0.0024891272 -0.3079993 0.12465533 0.31855875 -0.22842737 0.18062729
0.19946453 0.4218711 0.20537981 0.16417739 0.35639688 0.43914834 0.1708455 -0.3915074
0.28861868 -0.17300335 0.016997412 -0.2565367 0.06425709 -0.073031366 -0.27507016 -0.10756591
0.08100079 -0.09008597 -0.27942133 -0.20123546 0.3042333 0.16531788 -0.18726918 0.15427217
-0.09625653 0.116755426 -0.06897253 -0.004290315 -0.036512677 0.018034253 -0.007871391 -0.2058433
0.14697622 0.1415388 0.37095553 -0.26079527 -0.16660999 0.35513836 0.1186255 -0.16700144
-0.123711735 0.17056315 0.256053 -0.032568015 -0.1971707 0.1364247 -0.31582522 0.16185567
-0.101033755 -0.08867296 -0.37980014 0.36049715 0.16983232 0.023730742 0.07581339 0.3231305
-0.086061165 0.29305765 0.082709104 0.36621177 0.29853046 0.062234648 -0.14508267 0.3452711
-0.10522684 -0.1608245 -0.33710372 0.028104953 -0.2677758 -0.02928497 -0.36303642 -0.073707215
0.40277445 0.017436441 0.14436913 0.06427659 -0.18205655 -0.4775145 0.08462077 -0.12167026
-0.16671406 -0.29453653 0.0533131 0.05803246 -0.06386587 -0.119079664 0.34377223 -0.33131233
-0.105417624 0.16935998 0.061903007 -0.088106744 -0.01958258 0.27813005 -0.3424042 0.16383865
-0.12330709 0.1562761 -0.11561735 -0.15672125 0.084381685 0.32645422 0.09603397 -0.16175699
0.40663955 0.105670765 -0.2896599 -0.08139038 -0.04265875 -0.016428199 0.1404306 0.18664531
-0.20155667 0.053054616 0.03823274 0.1895502 -0.20859654 0.25886482 -0.18867192 0.15029304
0.14072695 0.30135277 -0.2793385 -0.046878826 -0.071447656 0.143168 0.10979019 0.18113899
-0.048965223 -0.25615013 -0.08401742 -0.027034983 -0.18814054 -0.2041513 -0.010930368 0.015666584
0.048930474 0.22953261 -0.25663772 -0.15351734 -0.018966127 -0.0438618 -0.25490463 0.22708505
-0.07684265 -0.18817051 -0.10639726 -0.100488745 -0.19892631 0.07978481 -0.22769797 -0.28844088
-0.08552085 -0.16911125 -0.18080813 -0.18091482 0.3309908 0.08776949 -0.114189975 -0.009848355
0.051483758 -0.29616588 0.16493066 -0.039115332 0.19419795 -0.27185005 0.06954768 -0.23117098
-0.13078836 -0.19764322 0.3672338 0.1050107 -0.24550472 0.26759857 0.09858937 -0.28107163
0.20252833 0.034070574 -0.31937975 -0.017373383 -0.22917166 -0.06793823 -0.086775295 0.20226249
-0.1628838 0.26176977 0.080098525 0.093087524 -0.12883057 0.12341316 0.30281514 0.34947982
0.3268891 0.31027848 -0.29926348 -0.34584835 -0.06750161 0.11882878 -0.004477595 -0.06097647
-0.008116328 0.16370134 0.25762004 0.027842266 0.40779272 -0.093185045 -0.33596382 -0.07700392
-0.21583797 -0.22634235 -0.069669634 0.3325347 0.08597333 0.19893426 -0.30188176 0.012239214
00000000: 0a12 4abe 8755 cdbd d41d 183e 751c 093b
00000010: 25fb 19bd 8c3a 323d fd38 0f3e 75c7 61be
00000020: 8893 00bc c1cb 0ebe 662a 173e e808 afbe
00000030: 8a8c 8b3c 9269 d0bd 3e72 253d a23a b23e
00000040: e33d 8c3e e863 a2be cf3a cd3d 214a 37be
00000050: 8726 783e f0c6 6c3e a1c8 a93e 0cb8 ae3e
00000060: 74f6 debd 1845 d0be f2c2 b8bd 1182 a83d
00000070: bc34 0a3e 7780 00be c41b 57be 3314 ccbd
00000080: f9ba 533e 8a06 2c3d a020 233b 16b2 9dbe
00000090: 4b4b ff3d 221a a33e dde8 69be 5cf6 383e
000000a0: 6e40 4c3e 7dff d73e 164f 523e 1e1e 283e
000000b0: a779 b63e 0dd8 e03e 1ff2 2e3e a873 c8be
000000c0: d4c5 933e ca27 31be 283e 8b3c c758 83be
000000d0: 3999 833d 7891 95bd ffd5 8cbe 844b dcbd
000000e0: bee3 a53d fe7e b8bd 5010 8fbe ab10 4ebe
000000f0: 78c4 9b3e 1749 293e 7ec3 3fbe 86f9 1d3e
00000100: 2522 c5bd 781d ef3d 7841 8dbd c595 8cbb
00000110: 518e 15bd 92bc 933c 02f7 00bc 96c8 52be
00000120: ef80 163e 8cef 103e e2ed bd3e f586 85be
00000130: cf9b 2abe b2d4 b53e edf1 f23d 6d02 2bbe
00000140: 945c fdbd 1ba8 2e3e 6119 833e 0a66 05bd
00000150: 1ee7 49be ebb2 0b3e d8b3 a1be 7ebd 253e
00000160: c9ea cebd 2b9a b5bd 2a75 c2be 1593 b83e
00000170: 86e8 2d3e f966 c23c 0d44 9b3d 5c71 a53e
00000180: d640 b0bd a70b 963e 6463 a93d 1c80 bb3e
00000190: fcd8 983e c2e9 7e3d 8d90 14be 60c7 b03e
000001a0: 2b81 d7bd 2daf 24be dc98 acbe 5c3c e63c
000001b0: e919 89be 09e7 efbc e9df b9be cff3 96bd
000001c0: 7438 ce3e ded6 8e3c 80d5 133e 72a3 833d
000001d0: 086d 3abe c87c f4be a74d ad3d 422e f9bd
000001e0: 17b7 2abe 7ecd 96be d65e 5a3d 72b3 6d3d
000001f0: 1ccc 82bd 0ae0 f3bd ea02 b03e c5a1 a9be
00000200: 32e5 d7bd b46c 2d3e 028e 7d3d 4f71 b4bd
00000210: a66b a0bc 1067 8e3e 9a4f afbe 52c5 273e
00000220: 6d88 fcbd d806 203e cac8 ecbd 897b 20be
00000230: 4ed0 ac3d 0225 a73e 75ad c43d a0a3 25be
00000240: 0f33 d03e ea69 d83d 4d4e 94be 00b0 a6bd
00000250: f1ba 2ebd 6e94 86bc 0acd 0f3e f31f 3f3e
00000260: df64 4ebe cc4f 593d ef99 1c3d 7319 423e
00000270: 559a 55be ee89 843e 3633 41be 6be6 193e
00000280: ba1a 103e e94a 9a3e 7505 8fbe 0304 40bd
00000290: 2653 92bd a29a 123e aed9 e03d 807c 393e
000002a0: c28f 48bd 1c26 83be 5311 acbd 7878 ddbc
000002b0: eaa7 40be 0a0d 51be 4915 33bc 3557 803c
000002c0: 526b 483d 990a 6b3e 0566 83be a633 1dbe
000002d0: da5e 9bbc 6ea8 33bd dc82 82be fc88 683e
000002e0: ae5f 9dbd c5af 40be cfe6 d9bd 0bcd cdbd
000002f0: 57b3 4bbe 3866 a33d a829 69be 86ae 93be
00000300: 8e25 afbd 802b 2dbe c425 39be bc41 39be
00000310: a077 a93e 7ec0 b33d 6fdc e9bd ff5a 21bc
00000320: a2e0 523d 0ea3 97be 95e3 283e 6637 20bd
00000330: d4db 463e ee2f 8bbe 046f 8e3d 16b8 6cbe
00000340: 62ed 05be fc62 4abe 1206 bc3e da0f d73d
00000350: 9765 7bbe ae02 893e 39e9 c93d 9fe8 8fbe
00000360: 9663 4f3e 968d 0b3d be85 a3be a052 8ebc
00000370: faab 6abe 3323 8bbd 3fb7 b1bd e61d 4f3e
00000380: 03cb 26be b006 863e b20a a43d aca4 be3d
00000390: 29ec 03be 0ac0 fc3d 960a 9b3e 05ef b23e
000003a0: 025e a73e d2dc 9e3e 1039 99be 0913 b1be
000003b0: 493e 8abd 815c f33d cab8 92bb 77c2 79bd
000003c0: 59fa 04bc 53a1 273e c6e6 833e 7715 e43c
000003d0: 35ca d03e cdd7 bebd 7303 acbe 3bb4 9dbd
000003e0: a104 5dbe 4ac6 67be f4ae 8ebd fd41 aa3e
000003f0: c912 b03d 6cb5 4b3e 3f90 9abe fc86 483c

0.bias f4 [128]
0.11608031 -0.19408007 -0.1431556 -0.30307123 0.14662835 -0.26635414 0.019444888 -0.31498268
-0.26809594 0.26990178 0.32598546 0.04168039 -0.11133475 -0.22326766 0.25198552 0.17431381
0.2753275 0.19281161 0.13116342 -0.20174707 0.07180836 -0.30437064 0.059303176 -0.22851722
0.35887152 -0.08929934 0.363824 -0.119280234 0.17958263 0.064195946 -0.039375376 0.087469295
0.014205643 -0.050578803 0.3246979 0.34498718 0.26027885 -0.16168875 0.05410136 -0.15258731
-0.10874344 -0.09429674 -0.0057614655 0.27871916 -0.04988288 0.34680215 -0.16802217 -0.24093744
0.3181797 0.0076811896 0.27303615 -0.18475702 -0.23702697 0.1818555 -0.35119382 0.02403426
0.3006847 -0.064974286 0.10234789 0.11020291 0.26907983 0.15042156 -0.16623634 0.23074679
-0.26397893 0.009767359 -0.35447544 0.30923834 0.1494161 -0.07918927 0.056021623 0.16883197
-0.19518021 0.107891895 0.04884611 0.07518874 0.0027996374 -0.14286771 0.17680296 -0.0007617074
0.34564063 -0.2221437 -0.118533395 0.040768795 0.1484313 -0.18628803 0.14062619 0.22008915
0.15117705 0.2286909 0.066105895 -0.20817855 0.33198372 -0.08785988 -0.08116693 -0.1955996
0.044081222 0.06422698 0.16639183 -0.27026972 0.07184077 -0.15442859 -0.16882975 -0.035879586
0.2606731 -0.29263332 -0.29058096 -0.37648612 0.116935216 -0.047033053 0.08255114 -0.065579124
-0.20787139 -0.42172444 0.16066837 0.16241357 -0.3506703 0.00860084 -0.17752627 -0.05469546
-0.09481212 0.323388 -0.36157304 0.18804693 -0.06186215 0.32426447 0.32849655 0.088529654
00000000: 83bb ed3d edbc 46be 6297 12be 272c 9bbe
00000010: be25 163e 925f 88be e34a 9f3c 6945 a1be
00000020: df43 89be 9130 8a3e 91e7 a63e 0eb9 2a3d
00000030: 7903 e4bd 47a0 64be 3f04 813e 527f 323e
00000040: baf7 8c3e 6870 453e b44f 063e c996 4ebe
00000050: 4310 933d 78d6 9bbe e3e7 723d 6b00 6abe
00000060: 02be b73e 93e2 b6bd 2447 ba3e 3249 f4bd
00000070: 82e4 373e 2a79 833d 1348 21bd 1a23 b33d
00000080: c9be 683c b82b 4fbd ce3e a63e 29a2 b03e
00000090: 4543 853e bc91 25be 6399 5d3d d93f 1cbe
000000a0: e1b4 debd a61e c1bd adca bcbb 47b4 8e3e
000000b0: fe51 4cbd 0d90 b13e 010e 2cbe 4eb8 76be
000000c0: 73e8 a23e 7db2 fb3b 65cb 8b3e f230 3dbe
000000d0: 33b7 72be 5438 3a3e adcf b3be 7fe3 c43c
000000e0: 58f3 993e 3d11 85bd c59b d13d 10b2 e13d
000000f0: d5c4 893e 1c08 1a3e dc39 2abe e348 6c3e
00000100: 3f28 87be 4607 203c ce7d b5be 7d54 9e3e
00000110: 8900 193e fc2d a2bd ee76 653d 4ae2 2c3e
00000120: 52dd 47be 6df6 dc3d dc12 483d 8efc 993d
00000130: 1f7a 373b ea4b 12be d60b 353e 51ad 47ba
00000140: cff7 b03e a379 63be a3c1 f2bd 2efd 263d
00000150: 60fe 173e 4ac2 3ebe 5000 103e 0d5f 613e
00000160: 28ce 1a3e f32d 6a3e 8762 873d c22c 55be
00000170: c5f9 a93e e1ef b3bd d93a a6bd 434b 48be
00000180: 838e 343d 6f89 833d 9f62 2a3e cb60 8abe
00000190: 4121 933d 8722 1ebe b5e1 2cbe 79f6 12bd
000001a0: f276 853e 09d4 95be 07c7 94be cac2 c0be
000001b0: bb7b ef3d bba5 40bd 9210 a93d 594e 86bd
000001c0: 3ddc 54be 44ec d7be 4086 243e be4f 263e
000001d0: 0f8b b3be 8aea 0c3c 72c9 35be 5908 60bd
000001e0: db2c c2bd 1d93 a53e 1a20 b9be 608f 403e
000001f0: 2a63 7dbd fe05 a63e b330 a83e 094f b53d

2.weight f4 [200, 128]
-0.07725732 -0.11687416 0.036252536 0.059497096 0.007615615 -0.0024987771 0.1353398 0.038652353
-0.053350408 0.1582759 -0.03670246 -0.12786919 -0.043628372 0.021142427 0.14374565 0.06878538
0.0796707 -0.013019378 -0.058488313 -0.048073784 0.09487032 -0.037451856 0.034210883 0.06358542
-0.087610394 0.08458487 0.06731969 -0.10078727 0.059493743 0.05603368 -0.04355136 -0.16792488
-0.1669246 -0.12012344 -0.056266043 -0.11321572 -0.07635587 0.06904854 -0.026969686 0.097957216
-0.0036763595 -0.10968139 -0.0898004 -0.020604258 -0.021298323 0.10214289 0.021306274 0.00204198
-0.07902685 -0.12595369 0.022643652 0.0052588526 0.034649525 -0.012015136 -0.051444415 0.026100282
0.021285806 -0.008887537 0.008616951 0.015819563 0.033435002 -0.094400704 0.0070442013 0.0035605498
-0.0115803825 -0.08001129 0.044875085 0.03361294 0.0074556647 -0.06570664 0.083178766 -0.067310795
0.07125371 -0.03868261 -0.053630624 0.017218947 0.10486407 0.024270792 -0.08396207 -0.0028326388
0.019208228 -0.015665123 0.10743363 -0.034536798 -0.021283947 0.11216342 0.05823932 0.09618711
-0.12070081 0.115632296 0.03843684 -0.047097333 -0.053252555 0.13166727 -0.09190757 -0.058091898
0.0488319 0.02487686 0.02546991 0.035789642 -0.1266549 0.086951695 0.13910092 -0.06238956
-0.011122394 0.02244663 0.23386583 0.26169652 0.034776423 -0.021103952 0.060295653 0.002845537
0.024630874 -0.02135447 -0.059659507 0.047221713 -0.08128971 0.0471634 0.070309356 0.062831275
-0.040329758 0.060608663 0.017139114 -0.032323793 0.14236273 -0.12714426 -0.16068223 0.066040374
0.052265484 -0.119798936 0.04402769 -0.07449672 0.08587567 0.063795164 0.047249153 -0.030330267
0.10090284 0.05990195 0.012360064 -0.039829172 0.05316631 0.07948492 0.043376945 -0.08831542
0.07002031 0.046834707 -0.07071218 0.032831993 -0.019472547 -0.010903772 -0.022657624 -0.04407928
-0.11612699 0.03117787 0.019525819 0.05751185 0.024943078 -0.0107722515 -0.10412514 0.079224125
-0.037349127 0.023752408 -0.019085126 0.07561929 -0.026286853 -0.08085998 0.08271142 0.021402156
-0.051241778 -0.02083105 -0.085842125 -0.05638709 -0.036796898 0.02272101 -0.054410804 0.081994176
-0.10560428 0.05710139 -0.005252932 0.096313834 -0.039298862 0.0019947537 0.008587416 -0.13614447
-0.009833569 -0.1610673 -0.08544058 0.05392651 0.044447657 -0.14446978 -0.013581993 -0.00083513104
0.0050163325 -0.035920106 0.08613481 0.013048807 0.023286736 0.056243896 -0.055730093 -0.060444683
0.09046863 -0.0070871282 -0.038877532 -0.016460242 -0.013960249 0.0024903459 -0.041892596 -0.08536196
-0.0074820328 0.030133577 0.020402871 -0.038369767 -0.011444035 0.046661913 -0.0021213691 0.09134799
-0.0077385125 0.036975868 -0.077871725 0.04654027 -0.033582337 -0.046562336 0.04011099 0.0745001
0.18143843 0.06839044 0.09909147 0.050605662 0.067035 0.015107289 0.113805525 0.0073910602
-0.025701026 -0.01965269 0.08120499 0.09319891 0.0933049 -0.05276243 -0.011380967 -0.04512993
0.027766798 -0.08290657 -0.11896055 0.11927608 -0.08920953 0.051876415 0.03672247 0.037336722
-0.08495955 -0.0070544886 -0.017616851 -0.056283 -0.10515582 -0.041018456 0.011263246 -0.01372803
00000000: 1639 9ebd b85b efbd 8a7d 143d 3ab3 733d
00000010: 698c f93b 86c2 23bb 8496 0a3e ee51 1e3d
00000020: f585 5abd 1413 223e 5255 16bd 24f0 02be
00000030: aab3 32bd e232 ad3c 0f32 133e 59df 8c3d
00000040: 642a a33d 3b4f 55bc 7191 6fbd 04e9 44bd
00000050: 5f4b c23d 1e67 19bd b620 0c3d 1339 823d
00000060: 146d b3bd d53a ad3d e8de 893d 8e69 cebd
00000070: b6af 733d 9283 653d e962 32bd 80f4 2bbe
00000080: 48ee 2abe 4703 f6bd 3977 66bd a5dd e7bd
00000090: 7760 9cbd 5269 8d3d 88ef dcbc cb9d c83d
000000a0: 14ef 70bb a3a0 e0bd 46e9 b7bd 43ca a8bc
000000b0: d279 aebc 4b30 d13d 7f8a ae3c bdd2 053b
000000c0: d4d8 a1bd 01fa 00be 2e7f b93c 7452 ac3b
000000d0: a9ec 0d3d 22db 44bc 61b7 52bd 42d0 d53c
000000e0: 925f ae3c 089d 11bc 1d2e 0d3c 0798 813c
000000f0: 24f3 083d 2855 c1bd 0bd3 e63b 1d58 693b
00000100: a5bb 3dbc f6dc a3bd f0ce 373d b9ad 093d
00000110: a64e f43b 3491 86bd a159 aa3d 3eda 89bd
00000120: 77ed 913d a871 1ebd c9ab 5bbd c00e 8d3c
00000130: f9c2 d63d 8ad3 c63c 4ef4 abbd cba3 39bb
00000140: 935a 9d3c 2554 80bc 2a06 dc3d 7576 0dbd
00000150: ac5b aebc efb5 e53d 5a8c 6e3d bffd c43d
00000160: fc31 f7bd a0d0 ec3d f36f 1d3d 22e9 40bd
00000170: 5a1f 5abd c9d3 063e 093a bcbd c5f1 6dbd
00000180: f503 483d 8fca cb3c 46a6 d03c 2998 123d
00000190: d2b1 01be bb13 b23d 7970 0e3e 328c 7fbd
000001a0: b43a 36bc ffe1 b73c 867a 6f3e 16fd 853e
000001b0: b971 0e3d 32e2 acbc 93f8 763d 307c 3a3b
000001c0: b0c6 c93c 92ef aebc 875d 74bd 8e6b 413d
000001d0: 387b a6bd 692e 413d 5afe 8f3d afad 803d
000001e0: d130 25bd ca40 783d 5467 8c3c f465 04bd
000001f0: 89c7 113e 1b32 02be e289 24be 2d40 873d
00000200: 5514 563d 2559 f5bd 6156 343d bd91 98bd
00000210: 95df af3d 0aa7 823d 5488 413d 2e77 f8bc
00000220: 26a6 ce3d bf5b 753d de81 4a3c ea23 23bd
00000230: ebc4 593d fdc8 a23d 06ac 313d b7de b4bd
00000240: cf66 8f3d c0d5 3f3d 8cd1 90bd d77a 063d
00000250: e484 9fbc bca5 32bc 7b9c b9bc 7a8c 34bd
00000260: fdd3 edbd bc68 ff3c 9cf4 9f3c 8c91 6b3d
00000270: 6d55 cc3c 197e 30bc 903f d5bd 4240 a23d
00000280: 66fb 18bd 6994 c23c 6958 9cbc 49de 9a3d
00000290: 8757 d7bc eb99 a5bd 9b64 a93d 9353 af3c
000002a0: e6e2 51bd e1a5 aabc ffcd afbd 26f6 66bd
000002b0: 58b8 16bd 6921 ba3c dddd 5ebd 90ec a73d
000002c0: 0f47 d8bd 26e3 693d ca20 acbb 3040 c53d
000002d0: d8f7 20bd 6aba 023b 3cb2 0c3c 7569 0bbe
000002e0: fa1c 21bc d4ee 24be 79fb aebd 0be2 5c3d
000002f0: bf0e 363d e3ef 13be 0287 5ebc b2ec 5aba
00000300: 0c60 a43b f620 13bd 7267 b03d aaca 553c
00000310: d3c3 be3c 0060 663d 3d45 64bd d894 77bd
00000320: 9e47 b93d 243b e8bb 0c3e 1fbd a1d7 86bc
00000330: 87b9 64bc 1235 233b 9297 2bbd 40d2 aebd
00000340: d72b f5bb b1da f63c ec23 a73c 9e29 1dbd
00000350: c37f 3bbc 9020 3f3d ab06 0bbb a814 bb3d
00000360: 5993 fdbb 0274 173d 367b 9fbd 03a1 3e3d
00000370: a28d 09bd 26b8 3ebd 6c4b 243d 8293 983d
00000380: ffca 393e 4910 8c3d 78f0 ca3d e247 4f3d
00000390: a549 893d 9084 773c df12 e93d b530 f23b
000003a0: f58a d2bc aefe a0bc cd4e a63d 12df be3d
000003b0: a416 bf3d 6b1d 58bd 3c77 3abc 29da 38bd
000003c0: 3277 e33c ebca a9bd 97a1 f3bd 0447 f43d
000003d0: 7cb3 b6bd 5d7c 543d 4d6a 163d 64ee 183d
000003e0: 46ff adbd 5729 e7bb 3751 90bc 0189 66bd
000003f0: ef5b d7bd f802 28bd 7a89 383c 88eb 60bc

2.bias f4 [200]
-0.12672196 -0.11313486 -0.035656177 -0.08973415 -0.060715284 0.036554705 -0.026402498 0.0024042649
0.055531066 0.050270345 0.049958903 -6.0077367e-05 -0.005856416 0.0341544 0.025338624 0.06610755
0.024014115 -0.042267513 -0.027176403 0.04710224 0.060576677 0.012182781 0.036826644 0.007050739
-0.009722804 0.048217494 -0.038686514 -0.011767268 -0.014092049 0.006553533 0.012981207 0.0607318
0.041364282 0.030294072 -0.0014367168 0.070992224 0.013830777 0.015834447 0.049101036 0.05592302
0.013098378 0.069684416 -0.01454633 0.067968786 0.08601494 0.07539921 -0.028723435 0.08106586
-0.009731859 0.052856334 0.017837156 0.027316587 0.031666998 0.05804279 0.026598807 -0.01629355
-0.0070050326 0.05728538 0.085568696 0.0697312 -0.009397719 -0.07327627 0.038597945 0.014228716
0.018060476 0.08233667 -0.03635913 0.04392459 0.009575691 0.026261788 -0.029727403 -0.02988968
0.031552806 -0.0058854045 0.014201324 -0.029589148 0.06581223 -0.050784625 -0.034836154 0.008807171
-0.041366287 -0.013203768 -0.051499065 -0.018477986 0.03473163 -0.05927438 -0.052646592 -0.08046039
-0.056239523 -0.05096878 -0.07109157 0.046633296 -0.07890827 -0.086164325 0.012116663 0.0023050094
-0.010590867 -0.042035583 -0.09090552 -0.08827411 -0.11047105 -0.039288353 0.011338626 0.0065306127
-0.09768329 -0.085749835 0.067722864 0.028125336 0.053146925 -0.0015538669 0.024377726 0.0347396
0.07240297 -0.0014982576 -0.0055253794 0.02533615 -0.07543374 -0.039388582 0.0070399223 0.030039635
0.023768147 0.03933657 0.06041 -0.013747075 -0.020681305 0.053290453 0.0027151308 0.045928106
-0.027471207 0.07169002 0.059984256 0.007909584 -0.043511096 0.016785603 0.02571219 -0.0074534533
0.0005898712 -0.020152599 -0.03108478 0.05890388 0.023646343 0.03398009 -0.00060600665 0.06367448
-0.03089969 -0.04476172 -0.028254135 -0.04661711 0.0026826395 0.003723799 0.045714904 -0.100571096
0.016041225 0.008769563 -0.022572577 -0.004353185 -0.056075092 -0.03260799 0.007969716 -0.039086506
0.0307716 -0.0040211156 0.042144097 -0.045707922 0.04874296 -0.09970827 -0.045402914 0.041134104
0.008945258 -0.009606434 0.0051522497 -0.029281594 -0.051415924 0.021330273 -0.0073715593 -0.00084014994
-0.007538752 -0.048016608 0.03221992 0.022900922 0.0363825 -0.04390089 0.0207372 0.066742934
-0.0076261843 0.02806086 0.023677163 0.02203153 0.019855192 -0.018598426 0.01754205 -0.0015396193
0.08767264 0.06852435 0.06523344 0.040569816 0.118333526 0.0063277665 0.02939846 0.101775944
00000000: 67c3 01be 40b3 e7bd 360c 12bd 8ac6 b7bd
00000010: 97b0 78bd 63ba 153d 0d4a d8bc df90 1d3b
00000020: 8b74 633d 47e8 4d3d b5a1 4c3d 95fb 7bb8
00000030: 2ee7 bfbb 7ce5 0b3d f292 cf3c 6563 873d
00000040: 40b9 c43c b320 2dbd 0ca1 debc 47ee 403d
00000050: 401f 783d 499a 473c 89d7 163d e309 e73b
00000060: 654c 1fbc b57f 453d c075 1ebd 80cb 40bc
00000070: 56e2 66bc 05bf d63b 21af 543c e8c1 783d
00000080: 986d 293d 462b f83c 3750 bcba 5f64 913d
00000090: 7c9a 623c 3eb7 813c 2b1e 493d 890f 653d
000000a0: 949a 563c b4b6 8e3d bb53 6ebc 3833 8b3d
000000b0: 9a28 b03d e76a 9a3d 694d ebbc dc05 a63d
000000c0: 6072 1fbc e27f 583d 3a1f 923c 09c7 df3c
000000d0: 41b5 013d 47be 6d3d bee5 d93c 0d7a 85bc
000000e0: 798a e5bb 13a4 6a3d a43e af3d 3bcf 8e3d
000000f0: e4f8 19bc de11 96bd e118 1e3d 8f1f 693c
00000100: 90f3 933c 21a0 a83d 50ed 14bd 45ea 333d
00000110: 5ce3 1c3c f622 d73c e286 f3bc 34db f4bc
00000120: 843d 013d 5ada c0bb acac 683c f164 f2bc
00000130: 90c8 863d 8a03 50bd 5bb0 0ebd f44b 103c
00000140: b26f 29bd 9e54 58bc aff0 52bd 255f 97bc
00000150: c142 0e3d b1c9 72bd f4a3 57bd 6bc8 a4bd
00000160: 6a5b 66bd a4c4 50bd 7598 91bd 8e02 3f3d
00000170: a99a a1bd ec76 b0bd f884 463c a40f 173b
00000180: 5185 2dbc 812d 2cbd ac2c babd 0ec9 b4bd
00000190: a53e e2bd d3ec 20bd a5c5 393c c0fe d53b
000001a0: 2d0e c8bd 9c9d afbd 49b2 8a3d 1b67 e63c
000001b0: 97b0 593d 1fab cbba ccb3 c73c 1c4b 0e3d
000001c0: 0248 943d 2f61 c4ba 3e0e b5bb c28d cf3c
000001d0: 017d 9abd ec55 21bd 26af e63b ae15 f63c
000001e0: 6bb5 c23c 621f 213d 7a70 773d 693b 61bc
000001f0: d76b a9bc 1747 5a3d 56f0 313b 1c1f 3c3d
00000200: 4c0b e1bc 38d2 923d 0db2 753d 3397 013c
00000210: b138 32bd f681 893c 5fa2 d23c 193c f4bb
00000220: 96a1 1a3a 1017 a5bc 82a5 febc 3245 713d
00000230: fab5 c13c b52e 0b3d 6bdc 1eba c467 823d
00000240: 5921 fdbc 1158 37bd 3775 e7bc 95f1 3ebd
00000250: 39cf 2f3b fb0a 743b 8d3f 3b3d 38f8 cdbd
00000260: e368 833c 37ae 0f3c 20ea b8bc 2aa5 8ebb
00000270: ffae 65bd f58f 05bd 6993 023c 2c19 20bd
00000280: b914 fc3c 90c3 83bb 4a9f 2c3d 3b38 3bbd
00000290: b3a6 473d d933 ccbd 68f8 39bd 3c7c 283d
000002a0: 228f 123c 4e64 1dbc 34d4 a83b f4df efbc
000002b0: 8199 52bd d3bc ae3c 1f8d f1bb 823d 5cba
000002c0: a307 f7bb 10ad 44bd 09f9 033d b79a bb3c
000002d0: d105 153d 6bd1 33bd 0fe1 a93c 85b0 883d
000002e0: 12e5 f9bb e3df e53c 9cf6 c13c 787b b43c
000002f0: 5ba7 a23c ba5b 98bc 58b4 8f3c 0dcd c9ba
00000300: b78d b33d 7f56 8c3d 1c99 853d 892c 263d
00000310: d958 f23d 2759 cf3b 0ad5 f03c e86f d03d
