models/encoder.pt (torch, 109277 bytes, 4 tensors)

0.weight f4 [128, 200]
-0.09562378 -0.022229038 -0.034510154 -0.086533725 -0.06436596 -0.0078114406 -0.07620803 -0.041140765
-0.03529552 -0.062342793 0.0568231 -0.025839917 0.017776921 -0.074254684 -0.03391764 -0.003309765
-0.0655002 0.017523605 -0.036479633 0.03426646 -0.06362814 0.06000383 -0.0046391757 0.046925597
-0.032144807 -0.05267377 -0.009039285 0.04150795 0.000956146 0.00530673 0.004052039 0.008238536
0.026025783 -0.012564291 -0.03892464 -0.059880808 0.014977828 0.007614981 0.04092011 0.05396111
-0.03742339 -0.046328574 -0.02273152 -0.04954619 0.0307648 0.02915272 -0.046296533 0.044738423
0.010852788 -0.049716264 0.07068854 0.024829878 -0.01836814 0.050234925 -0.0427209 -0.037499353
-0.015625905 -0.0314007 0.04220408 -0.06120114 0.04162476 0.0028788154 -0.017518936 0.04745057
0.03439416 0.011723505 -0.06107212 0.053503405 -0.03281654 0.040226776 -0.045785442 0.04379913
0.03503689 -0.024555517 0.06326197 0.009231613 -0.040652417 0.0657498 -0.031717077 0.054632075
0.058396984 -0.025714312 0.022496592 -0.008091861 0.059465475 -0.0018722682 0.078179814 -0.04812837
-0.015546088 -0.018035851 -0.03986611 0.09160051 -0.019709814 -0.037149034 0.053525068 -0.018684376
0.04595111 0.012899117 0.0106262695 0.070154935 -0.12477371 0.030213643 0.04589179 0.056163672
-0.029228184 0.009375993 -0.03279754 -0.057455078 -0.0011360035 -0.052617855 -0.028860876 0.063374385
-0.0416609 0.047426015 0.053081684 0.028540423 0.048105497 -0.018380672 0.08205817 0.034985848
0.030894704 -0.05328929 -0.049900714 0.0722613 0.05411552 -0.016338915 0.035265554 -0.028398223
-0.01201834 0.034099236 0.07289839 0.03910689 -0.019653011 -0.045283098 0.027622629 -0.0075399377
-0.039690986 0.07562618 0.027621444 -0.026454434 0.052530464 -0.016201213 -0.029588839 -0.00055647746
-0.053670373 0.08694096 0.02306143 0.036140412 -0.000255285 0.021973187 -0.017665906 0.07402316
0.010133381 0.06843442 0.047487862 0.008930726 0.027477631 0.0028830883 0.0737666 -0.034209196
0.050265383 -0.013472583 0.07935426 0.038064107 0.0037769487 0.03512812 0.04591052 0.0084440205
-0.050073057 0.055301867 0.041818384 0.0034389193 -0.013594923 0.072925195 0.032352995 0.029836178
0.047371943 0.0765106 -0.045295615 0.00075753615 0.012388096 0.0014871245 0.04740528 -0.038237683
-0.045694284 -0.037820864 -0.059526537 0.049891025 0.022199165 0.005988871 -0.0441268 0.018135725
-0.035351615 0.010257163 -0.07995107 -0.057324536 -0.038787037 -0.044292625 -0.008710724 -0.007940949
-0.008136969 0.011666428 0.04451761 -0.05527892 0.0062571857 0.018219195 -0.0034359847 0.022024281
0.012778406 0.07461634 -0.040249854 0.06852156 -0.014781852 -0.042726655 -0.018359277 -0.0368958
0.024968365 0.052188013 0.009564906 -0.05754161 0.019127565 0.0717475 0.039369076 0.03432215
0.012256383 0.085665725 0.005778246 0.07227533 0.013802664 -0.030078722 0.07073477 -0.03825141
0.035536177 0.044695705 0.07699454 0.07930614 0.0512671 0.024984421 -0.025159333 0.06279754
-0.0014051864 -0.0040248395 0.02161026 -0.04765993 0.0044132196 0.06071088 0.07953782 0.012743502
0.027406694 -0.017156688 0.050239965 -0.0038273719 -0.020993276 -0.046291817 -0.029785901 -0.052691545
00000000: 66d6 c3bd ac19 b6bc 855a 0dbd 9838 b1bd
00000010: 4dd2 83bd 1df7 ffbb f512 9cbd 3883 28bd
00000020: 0992 10bd 285b 7fbd 57bf 683d 3cae d3bc
00000030: e8a0 913c d712 98bd 39ed 0abd a4e8 58bb
00000040: f824 86bd aa8d 8f3c ab6b 15bd fd5a 0c3d
00000050: 784f 82bd 93c6 753d 3a04 98bb 0e35 403d
00000060: 46aa 03bd 73c0 57bd 8219 14bc 3d04 2a3d
00000070: dfa5 7a3a 14e4 ad3b f7c6 843b edfa 063c
00000080: 0634 d53c 75da 4dbc 716f 1fbd 9445 75bd
00000090: 9065 753c 1787 f93b d89b 273d 5306 5d3d
000000a0: 4549 19bd 08c3 3dbd 7437 babc f2f0 4abd
000000b0: 7606 fc3c afd1 ee3c 6fa1 3dbd a33f 373d
000000c0: e4cf 313c 48a3 4bbd 27c5 903d 0768 cb3c
000000d0: c878 96bc 23c3 4d3d 1cfc 2ebd ec98 19bd
000000e0: e601 80bc 059e 00bd 2fde 2c3d 0cae 7abd
000000f0: b97e 2a3d 82aa 3c3b df83 8fbc 875b 423d
00000100: e4e0 0c3d f213 403c c226 7abd 6326 5b3d
00000110: a36a 06bd d5c4 243d 8489 3bbd b766 333d
00000120: d882 0f3d a728 c9bc 7e8f 813d 3140 173c
00000130: 2683 26bd d5a7 863d c4e9 01bd e2c5 5f3d
00000140: ad31 6f3d d2a6 d2bc c64a b83c ba93 04bc
00000150: 1292 733d e566 f5ba bd1c a03d 4122 45bd
00000160: 05b5 7ebc ecbf 93bc a54a 23bd 0c99 bb3d
00000170: 7a76 a1bc 9629 18bd 1a3d 5b3d fa0f 99bc
00000180: 3b37 3c3d d156 533c ce19 2e3c 64ad 8f3d
00000190: 5c89 ffbd 9a82 f73c 08f9 3b3d e10b 663d
000001a0: f26f efbc c49d 193c b756 06bd 0456 6bbd
000001b0: f4e5 94ba d285 57bd a56d ecbc 6eca 813d
000001c0: 9fa4 2abd c841 423d 2e6c 593d 9bcd e93c
000001d0: 450a 453d 1093 96bc 1d0e a83d 524d 0f3d
000001e0: e416 fd3c df45 5abd b164 4cbd bcfd 933d
000001f0: 3ca8 5d3d 30d9 85bc 9d72 103d 64a3 e8bc
00000200: 92e8 44bc a4ab 0b3d c04b 953d 8c2e 203d
00000210: 5aff a0bc c57a 39bd da48 e23c 9511 f7bb
00000220: 0493 22bd e6e1 9a3d 5e46 e23c f8b6 d8bc
00000230: 2f2a 573d 68b8 84bc 4b64 f2bc 92e0 11ba
00000240: 77d5 5bbd 1a0e b23d 53eb bc3c f807 143d
00000250: c6d7 85b9 1d01 b43c 17b8 90bc 7499 973d
00000260: 7b06 263c 5827 8c3d a282 423d 2e52 123c
00000270: c518 e13c 32f2 3c3b f112 973d f11e 0cbd
00000280: 13e3 4d3d 1cbc 5cbc 7c84 a23d 1ce9 1b3d
00000290: af86 773b 81e2 0f3d ab0c 3c3d ca58 0a3c
000002a0: 6819 4dbd 3684 623d c149 2b3d 7e5f 613b
000002b0: 3dbd 5ebc ce59 953d 9384 043d 006b f43c
000002c0: 1509 423d 97b1 9c3d e587 39bd 6495 463a
000002d0: 71f7 4a3c 9eeb c23a 0a2c 423d 1e9f 1cbd
000002e0: ee29 3bbd 0dea 1abd 19d2 73bd 885a 4c3d
000002f0: 06db b53c 4b3e c43b 4ebe 34bd 5f91 943c
00000300: dbcc 10bd a90d 283c 63bd a3bd 22cd 6abd
00000310: 28df 1ebd 2f6c 35bd 6db7 0ebc c11a 02bc
00000320: ec50 05bc 8c24 3f3c 1958 363d 266c 62bd
00000330: 1409 cd3b 6c40 953c 422e 61bb 446c b43c
00000340: 855c 513c 74d0 983d 08dd 24bd 0855 8c3d
00000350: 952f 72bc 2502 2fbd 3266 96bc 0d20 17bd
00000360: 758a cc3c 19c3 553d 20b6 1c3c c0b0 6bbd
00000370: 69b1 9c3c 5af0 923d 7841 213d 6295 0c3d
00000380: ffce 483c 8371 af3d 7157 bd3b 1705 943d
00000390: 9224 623c a767 f6bc 64dd 903d 83ad 1cbd
000003a0: 628e 113d d812 373d 50af 9d3d 426b a23d
000003b0: 73fd 513d 21ac cc3c f21a cebc ff9b 803d
000003c0: 3b2e b8ba cde2 83bb 0008 b13c 0f37 43bd
000003d0: c59c 903b f9ab 783d b9e4 a23d 1fca 503c
000003e0: 0184 e03c 2f8c 8cbc 6cc8 4d3d a5d4 7abb
000003f0: 17fa abbc 7d9c 3dbd 9001 f4bc 17d3 57bd

0.bias f4 [128]
0.077836044 0.07196053 -0.03150407 0.11386883 -0.020958815 -0.046456613 -0.08369204 -0.008401646
0.020428466 0.0004283064 4.4830325e-05 -0.020614205 0.03546165 -0.055612564 0.002455045 0.06561301
-0.0038329759 0.04675028 -0.04623644 0.07300278 -0.043936774 0.11717289 -0.055706065 -0.06165163
0.04052783 -0.12841229 0.04296746 -0.033985686 0.028439602 0.07885492 0.029009119 0.016920248
0.035841323 0.014786162 0.009702583 0.051243417 -0.032630697 -0.053425234 -0.0057844114 0.022841474
0.019769201 0.020103835 0.05193361 0.09665297 -0.018557152 0.0021440533 -0.004705701 -0.04260677
0.05225231 0.079952866 0.048671123 0.045635164 0.1376015 0.048110764 0.058186688 0.031868454
0.03249337 0.16055904 0.10124138 -0.0023397605 0.0458037 -0.08445074 0.0126332855 -0.03800387
0.009069291 -0.02093052 0.07607304 0.019460354 -0.034815717 0.05139454 -0.0020102458 -0.042719875
-0.014734292 -0.018683117 0.017552871 0.04034231 -0.004748596 -0.030988887 -0.010022371 0.012561141
0.08404432 0.03778647 0.019430013 -0.04094826 0.12817857 0.054643117 -0.034593772 0.03343659
-0.010237552 0.0013465144 0.049234174 -0.010309754 0.048935097 -0.0028487358 -0.062000252 -0.054652818
-0.032256704 0.061638545 -0.0054000705 -0.04196036 0.073761776 0.085610434 0.08824636 0.09082706
-0.029454108 -0.008597403 -0.09630177 0.08599856 0.010613583 -0.05997068 0.03728258 0.060538873
0.04516822 0.020293945 0.073187806 0.011616101 -0.011865741 -0.0420097 0.060333736 0.052030537
-0.024284005 0.0140295625 0.058931865 0.022781817 0.045933716 -0.057171702 0.06595545 0.08756999
00000000: 8168 9f3d 0b60 933d 690a 01bd 1034 e93d
00000010: d2b1 abbc 4a49 3ebd bb66 abbd 0fa7 09bc
00000020: 9959 a73c 508e e039 3208 3c38 1fdf a8bc
00000030: 3c40 113d 00ca 63bd d2e4 203b 1d60 863d
00000040: aa32 7bbb 397d 3f3d 6c62 3dbd 7b82 953d
00000050: 0cf7 33bd 57f8 ef3d 0b2c 64bd 6b86 7cbd
00000060: 8300 263d 837e 03be a6fe 2f3d 9334 0bbd
00000070: 2bfa e83c b07e a13d 88a4 ed3c 559c 8a3c
00000080: 5ace 123d a941 723c 95f7 1e3c 9ee4 513d
00000090: c4a7 05bd 6bd4 5abd 298b bdbb 0b1e bb3c
000000a0: 05f3 a13c ccb0 a43c 56b8 543d fef1 c53d
000000b0: 2b05 98bc 3f83 0c3b 4832 9abb 7084 2ebd
000000c0: 8506 563d 54be a33d 5f5b 473d f0eb 3a3d
000000d0: 68e7 0c3e cb0f 453d 2a55 6e3d 7f88 023d
000000e0: c517 053d 9769 243e a457 cf3d ab56 19bb
000000f0: a99c 3b3d 82f4 acbd d7fb 4e3c f2a9 1bbd
00000100: 5d97 143c 7b76 abbc 2fcc 9b3d 526b 9f3c
00000110: ed9a 0ebd 1583 523d 54be 03bb 09fb 2ebd
00000120: 1a68 71bc 560d 99bc 0acb 8f3c fa3d 253d
00000130: 1c9a 9bbb 68dc fdbc df34 24bc 3ecd 4d3c
00000140: 6e1f ac3d fcc5 1a3d b12b 9f3c 5db9 27bd
00000150: 3e41 033e 76d1 5f3d 33b2 0dbd cef4 083d
00000160: 68bb 27bc 877d b03a c6a9 493d 3eea 28bc
00000170: 2b70 483d dbb1 3abb faf3 7dbd a2db 5fbd
00000180: 9b1f 04bd b378 7c3d 13f3 b0bb a0de 2bbd
00000190: 6a10 973d 8654 af3d 82ba b43d 8a03 ba3d
000001a0: be49 f1bc 1fdc 0cbc dd39 c5bd 0320 b03d
000001b0: 98e4 2d3c d1a3 75bd 9eb5 183d 9cf7 773d
000001c0: 5002 393d 7d3f a63c 7de3 953d 7551 3e3c
000001d0: 8668 42bc 5d12 2cbd 8220 773d f91d 553d
000001e0: 40ef c6bc 40dc 653c 8a62 713d efa0 ba3c
000001f0: fe24 3c3d e02c 6abd a713 873d e557 b33d

2.weight f4 [8, 128]
-0.03230243 0.034279115 -0.07894425 0.06485547 0.056734487 0.06023876 0.0052121095 -0.08324267
-0.066359125 0.088984974 -0.083080955 -0.04831103 -0.11048923 -0.079298034 -0.051783904 -0.09103544
-0.009747261 -0.03667181 -0.064285174 -0.09133453 0.08985163 -0.006312584 0.07508742 0.050991178
0.024706466 0.07832488 0.05550401 0.07972631 -0.05523294 -0.09685544 0.024882073 -0.09167386
0.018553624 -0.010228508 0.003041891 0.11331954 0.03892642 0.042469487 -0.07599916 0.05431043
-0.081641324 0.023866424 -0.018732157 -0.047859956 -0.047772482 0.030897724 0.056349922 0.022545017
0.015756968 -0.056694575 0.062317017 0.07248746 -0.0007936521 0.09095198 -0.016821038 0.05510482
0.06632915 -0.03093236 0.06182825 0.037874874 -0.017429175 0.061271522 0.094474934 0.031909097
-0.019066887 0.026246058 -0.032929696 -0.09199439 -0.06385958 0.041773956 0.019818328 0.04708408
0.046127196 0.034925118 0.07996478 0.08458483 -0.05309713 0.04235022 -0.0042257872 -0.084014654
-0.0010928053 -0.0793388 -0.060530998 -0.06623428 -0.018492395 -0.07618405 -0.035381995 -0.1164387
0.08315985 -0.025703968 -0.060739797 0.07163271 -0.08502552 -0.06905717 -0.06789271 -0.07945815
0.051016323 -0.005554828 0.0542578 -0.048457846 -0.10576032 0.063697375 0.05977187 0.19007227
-0.08361882 0.0028266658 0.05037255 -0.05810221 -0.019493004 -0.07526462 -0.061143138 0.033757426
0.08048267 0.028997188 -0.027019804 -0.01424868 -0.03638469 -0.07848129 0.085548125 0.048190936
-0.054063752 0.034661096 -0.009062851 -0.0026382878 -0.03827288 0.049831476 -0.010336289 0.0126235355
0.013550663 0.03290732 -0.058110934 0.03678869 -0.012056227 -0.042801835 -0.023736741 -0.08075635
0.0038255977 -0.032943938 -0.05350747 0.07980634 -0.04537148 0.039761513 0.060554612 0.08607333
-0.09888541 0.061216414 0.023492577 0.011289104 -0.042750817 0.057574827 -0.010545167 -0.0068641393
0.011768763 -0.10587926 0.07830723 -0.07971162 0.0720331 0.040757723 0.07010732 -0.020887673
-0.044458967 -0.08747604 0.019153204 -0.021934584 -0.02916316 0.011766694 -0.004694612 0.06327672
-0.04610185 -0.032866295 0.09807313 0.04380486 0.0133335255 -0.094543315 0.081345335 -0.04612097
0.040746953 -0.051513 -0.062135536 0.0479106 0.05364335 -0.05655575 0.0382611 0.07073705
0.027355708 -0.012655539 -0.07297669 -0.039744977 -0.003958787 0.02822178 0.04444467 0.0041066133
-0.04081752 -0.08405133 0.076502725 -0.006431938 0.07836848 0.015875146 0.06883691 0.0018010689
0.038317155 -0.05266783 -0.064103544 -0.097348265 -0.010499833 0.0762828 -0.09895705 0.025510216
0.07752309 0.005282893 -0.026352402 0.022099216 0.013188786 0.015858885 0.08509402 0.08776445
-0.01968136 0.046120383 -0.034905683 0.019842599 -0.00921453 -0.10498181 0.091052145 -0.026579348
-0.006012242 0.010418331 0.055212546 -0.05853299 -0.0034372546 0.12036451 -0.025283208 -0.021426333
-0.04325809 0.017251229 0.027482618 -0.06829252 -0.07081167 0.007610441 0.0030229343 0.07281978
-0.045431744 -0.09839651 0.02403847 0.018026946 -0.05988345 0.030595407 -0.008003901 0.036365848
-0.041776538 -0.07865211 -0.053029202 0.009771181 0.025485646 0.08302495 0.05317127 0.0646156
00000000: 8e4f 04bd 4268 0c3d 86ad a1bd f2d2 843d
00000010: 6c62 683d ebbc 763d 58ca aa3b 227b aabd
00000020: 4be7 87bd c13d b63d 5926 aabd c9e1 45bd
00000030: 2d48 e2bd 0267 a2bd 5c1b 54bd ca70 babd
00000040: fab2 1fbc 2e35 16bd f2a7 83bd 990d bbbd
00000050: 2204 b83d cbd9 cebb 6fc7 993d 20dc 503d
00000060: 3765 ca3c cb68 a03d 2c58 633d 8c47 a33d
00000070: ef3b 62bd 255c c6bd 7dd5 cb3c 81bf bbbd
00000080: c5fd 973c 7995 27bc 765a 473b 1314 e83d
00000090: 4f71 1f3d 7cf4 2d3d 73a5 9bbd 9d74 5e3d
000000a0: 9133 a7bd 8583 c33c 2e74 99bc cd08 44bd
000000b0: 14ad 43bd 391d fd3c 2dcf 663d 54b0 b83c
000000c0: c214 813c 9238 68bd 2140 7f3d 4e74 943d
000000d0: 170d 50ba 0845 ba3d 46cc 89bc 97b5 613d
000000e0: 94d7 873d dc65 fdbc 9e3f 7d3d af22 1b3d
000000f0: a1c7 8ebc d9f7 7a3d 137c c13d 1db3 023d
00000100: 2932 9cbc f901 d73c 4ae1 06bd 8e67 bcbd
00000110: d0c8 82bd 2b1b 2b3d 0c5a a23c 3cdb 403d
00000120: dfef 3c3d a40d 0f3d 93c4 a33d d03a ad3d
00000130: 607c 59bd 6d77 2d3d 7978 8abb e00f acbd
00000140: 763c 8fba 617c a2bd 5aef 77bd d7a5 87bd
00000150: 5d7d 97bc 6206 9cbd b6ec 10bd 6a77 eebd
00000160: b64f aa3d 2191 d2bc 4bca 78bd 2cb4 923d
00000170: dc21 aebd d86d 8dbd 550b 8bbd f4ba a2bd
00000180: 7ef6 503d 4605 b6bb 6d3d 5e3d bc7b 46bd
00000190: de98 d8bd c573 823d 59d3 743d 4ea2 423e
000001a0: 5840 abbd 953f 393b 7253 4e3d 95fc 6dbd
000001b0: cbaf 9fbc 5624 9abd 3a71 7abd 3a45 0a3d
000001c0: 19d4 a43d 838b ed3c a358 ddbc 4c73 69bc
000001d0: 1d08 15bd ccba a0bd db33 af3d dc63 453d
000001e0: f471 5dbd cbf8 0d3d 5a7c 14bc 20e7 2cbb
000001f0: 06c4 1cbd 171c 4c3d 8a59 29bc f2d2 4e3c
00000200: 9a03 5e3c d3c9 063d bb05 6ebd bdaf 163d
00000210: 7b87 45bc fa50 2fbd 8e73 c2bc 9663 a5bd
00000220: e1b6 7a3b 39f0 06bd a62a 5bbd 8271 a33d
00000230: 72d7 39bd f8dc 223d 1d08 783d 3747 b03d
00000240: 6f84 cabd 10be 7a3d 8173 c03c eff5 383c
00000250: 7b1b 2fbd 95d3 6b3d a3c5 2cbc 93ec e0bb
00000260: c5d1 403c 3ad7 d8bd 8a5f a03d d93f a3bd
00000270: 1786 933d 92f1 263d 6d94 8f3d a01c abbc
00000280: 9b1a 36bd a326 b3bd 2ee7 9c3c 28b0 b3bc
00000290: 94e7 eebc 17c9 403c 43d5 99bb 3a97 813d
000002a0: 4bd5 3cbd cf9e 06bd 91da c83d ba6c 333d
000002b0: dc74 5a3c ed9f c1bd 6298 a63d 58e9 3cbd
000002c0: 47e6 263d 4cff 52bd d581 7ebd e83d 443d
000002d0: 21b9 5b3d 01a7 67bd acb7 1c3d 96de 903d
000002e0: 1419 e03c 2e59 4fbc ce74 95bd a1cb 22bd
000002f0: b6b8 81bb 5d31 e73c 9d0b 363d c590 863b
00000300: 4630 27bd 1b23 acbd 76ad 9c3d 02c3 d2bb
00000310: a77f a03d 980c 823c 5efa 8c3d d811 ec3a
00000320: 73f2 1c3d 39ba 57bd b848 83bd 875e c7bd
00000330: 7e07 2cbc 283a 9c3d fea9 cabd cdfa d03c
00000340: 6dc4 9e3d 1e1c ad3b fee0 d7bc 6a09 b53c
00000350: c715 583c 7eea 813c c645 ae3d d9bd b33d
00000360: ce3a a1bc bae8 3c3d 43f9 0ebd f28c a23c
00000370: 8af8 16bc b400 d7bd 8c79 ba3d efbc d9bc
00000380: 5702 c5bb a6b1 2a3c 8d26 623d 4ac0 6fbd
00000390: 9043 61bb ab81 f63d bb1e cfbc 4786 afbc
000003a0: 652f 31bd 7352 8d3c 3a23 e13c f3dc 8bbd
000003b0: b505 91bd 0261 f93b 6c1c 463b 8922 953d
000003c0: a316 3abd 1c84 c9bd 53ec c43c 3fad 933c
000003d0: 5948 75bd 38a3 fa3c cb22 03bc 5bf4 143d
000003e0: e01d 2bbd 5c14 a1bd 2635 59bd 4e17 203c
000003f0: 46c7 d03c fc08 aa3d 1eca 593d 2f55 843d

2.bias f4 [8]
0.03828164 -0.056425378 0.038773604 -0.0015847007 0.016917733 -0.023501284 0.030961435 0.08231599
00000000: 35cd 1c3d 4c1e 67bd 12d1 1e3d bbb5 cfba
00000010: 0f97 8a3c c485 c0bc d6a2 fd3c 4995 a83d
