models/surrogate_model_retrained.pt (torch, 476397 bytes, 6 tensors)

net.0.weight f4 [256, 201]
-0.034851626 -0.06709423 0.10236351 -0.23873024 -0.023693189 -0.014061544 -0.0696205 0.030801628
-0.12222106 0.10708039 0.12543711 -0.1254008 -0.0038140093 -0.0060188505 0.13127102 -0.043209434
-0.04148601 0.056708064 0.012530294 -0.12489444 -0.06185502 -0.0053953873 -0.01487069 0.012612461
0.056208562 0.0041090674 0.110037886 -0.02585456 -0.07320677 0.029754566 0.12279637 0.020774484
-0.0067279567 -0.0047577033 -0.034688104 0.14046094 0.07306414 -0.00923699 -0.028377822 -0.08563739
0.08414092 -0.0074855275 0.14401503 -0.007967139 -0.0900753 -0.037906043 -0.0652524 0.11949236
0.036909673 0.05691091 -0.004736352 0.039998807 -0.06996398 0.030291397 -0.004822267 -0.0036773942
-0.045297373 0.009647332 0.102458686 0.05980571 -0.015181576 0.036986914 0.045818504 -0.0537
-0.042155564 0.11028199 0.04219095 -0.091364145 -0.062323272 -0.083390534 -0.07918975 0.003915482
0.06789691 0.02739891 -0.08728858 0.025185376 0.0055028205 -0.028404927 -0.030566782 0.04447099
-0.14031133 -0.119526826 -0.013129424 0.024852777 0.038785905 0.003772032 -0.10161147 0.052335907
0.034375176 0.009036283 0.0077642854 0.0367908 -0.03855996 -0.015395543 -0.043390255 -0.07711667
-0.102629125 0.014734775 0.004209025 -0.09074006 -0.011830727 0.036665227 -0.08628801 -0.09120135
0.06827316 -0.019165091 -0.030353675 -0.026588436 0.0027974544 -0.026929736 0.007048412 0.06463401
-0.09584146 -0.0059356303 -0.024115102 -0.032266527 0.040016327 0.08917192 -0.041303087 -0.020316686
-0.111208834 -0.0021985897 -0.032457817 -0.037226554 -0.058281384 0.035294253 -0.07832163 -0.06314714
0.025112072 -0.06627145 -0.13323817 -0.115252964 0.057305068 -0.08773817 -0.012066982 0.07099487
-0.030248327 -0.06456497 0.030490857 0.005188803 0.009559434 -0.026230099 -0.043480195 -0.027934471
0.04527878 -0.095381014 -0.05969986 0.038638752 -0.056363318 0.071678676 -0.046436545 -0.098408006
-0.0145207215 -0.021505646 -0.0018578804 -0.05424508 -0.011841992 -0.022539293 -0.01667501 -0.07647527
-0.032591783 -0.040390637 -0.0071054143 -0.0237297 -0.061734825 -0.028219292 -0.060785465 0.004440374
-0.041365508 0.04462543 -0.109517984 6.0212333e-05 -0.046901494 0.08374308 -0.042080883 0.028305447
-0.019778205 0.006229219 -0.058574792 -0.14398383 -0.040246643 -0.023544155 0.10666545 -0.1188524
-0.070372224 0.08048262 -0.097754955 0.10680998 -0.12917289 -0.17491578 0.07356333 -0.097266376
-0.29023764 0.07424421 -0.26972333 0.08836764 -0.114326395 -0.19319843 -0.003765289 0.04565428
-0.011744035 0.00067633606 0.06395765 0.061030593 0.012874692 -0.005310285 0.07082974 -0.06031267
0.0678322 -0.0025931515 0.046437066 -0.065768875 0.020150498 -0.02735871 -0.047703817 0.051699102
-0.061906617 0.018021056 0.010854567 0.006046629 -0.024350457 -0.017951436 -0.04796242 0.04400574
0.030338338 0.05009998 -0.043849338 -0.06057266 -0.014159661 0.033502653 -0.030592185 -0.025891038
0.009112865 0.03396903 -0.031127319 0.042178888 0.0666373 0.03925157 -0.04746724 0.049676742
-0.031504963 -0.0400109 0.06807394 -0.04560461 -0.056154363 -0.041351166 -0.00321232 0.020413028
0.0027767902 0.050844673 -0.026980642 -0.005538218 -0.054880038 -0.001163213 -0.010603545 -0.034156367
00000000: 94c0 0ebd b368 89bd f6a3 d13d b375 74be
00000010: 3818 c2bc 6462 66bc 3195 8ebd b253 fc3c
00000020: 094f fabd f74c db3d 9672 003e 1169 00be
00000030: 75f4 79bb c739 c5bb e96b 063e 60fc 30bd
00000040: 3ced 29bd b746 683d dd4b 4d3c a8c8 ffbd
00000050: b05b 7dbd cacb b0bb 32a4 73bc 7fa4 4e3c
00000060: f33a 663d 5ba5 863b 8b5b e13d f1cc d3bc
00000070: 6eed 95bd d9bf f33c aa7c fb3d 402f aa3c
00000080: 3176 dcbb 82e6 9bbb 1d15 0ebd fed4 0f3e
00000090: a7a2 953d be56 17bc 9b78 e8bc a862 afbd
000000a0: 1352 ac3d 2849 f5bb ad78 133e 9a88 02bc
000000b0: 6679 b8bd 5e43 1bbd 0da3 85bd 69b8 f43d
000000c0: 992e 173d 6a1b 693d 6633 9bbb cad5 233d
000000d0: 4649 8fbd aa25 f83c 1c04 9ebb 7000 71bb
000000e0: bd89 39bd d80f 1e3c dcd5 d13d d5f6 743d
000000f0: 25bc 78bc 977f 173d 2fac 3b3d 88f4 5bbd
00000100: 50ab 2cbd 86db e13d 6bd0 2c3d 201d bbbd
00000110: b046 7fbd a8c8 aabd 3c2e a2bd 724d 803b
00000120: 890d 8b3d ae73 e03c 5bc4 b2bd 9051 ce3c
00000130: 0151 b43b 73b1 e8bc 3067 fabc 3627 363d
00000140: c6ad 0fbe 7bca f4bd cc1c 57bc 0d98 cb3c
00000150: f8dd 1e3d 3234 773b ad19 d0bd 2d5e 563d
00000160: fccc 0c3d eb0c 143c 8c6b fe3b f3b1 163d
00000170: 0cf1 1dbd 963d 7cbc fbb9 31bd 58ef 9dbd
00000180: 382f d2bd 206a 713c dceb 893b edd5 b9bd
00000190: aad5 41bc 472e 163d c5b7 b0bd c6c7 babd
000001a0: ccd2 8b3d 1c00 9dbc 45a8 f8bc fecf d9bc
000001b0: 7f55 373b c09b dcbc 5ef6 e63b d65e 843d
000001c0: 8748 c4bd ad7f c2bb 098d c5bc e829 04bd
000001d0: 29e8 233d c59f b63d 6d2d 29bd 2e6f a6bc
000001e0: 75c1 e3bd 3716 10bb 7df2 04bd df7a 18bd
000001f0: 76b8 6ebd b590 103d 1767 a0bd 4a53 81bd
00000200: d5b7 cd3c 53b9 87bd 966f 08be bf09 ecbd
00000210: b8b8 6a3d 12b0 b3bd 97b4 45bc c265 913d
00000220: 57cb f7bc a43a 84bd f6c7 f93c d606 aa3b
00000230: 2c9f 1c3c 81e0 d6bc 4a18 32bd d5d6 e4bc
00000240: 3e76 393d 1f57 c3bd d787 74bd ab43 1e3d
00000250: 39dd 66bd 45cc 923d 3f34 3ebd 238a c9bd
00000260: 52e8 6dbc 9c2c b0bc 1f84 f3ba 1730 5ebd
00000270: ea04 42bc 53a4 b8bc 089a 88bc 119f 9cbd
00000280: f67e 05bd a770 25bd 89d4 e8bb ca64 c2bc
00000290: a8dd 7cbd 252c e7bc 2efa 78bd 8f80 913b
000002a0: e16e 29bd 28c9 363d f74a e0bd 808c 7c38
000002b0: c81b 40bd 7e81 ab3d 015d 2cbd d3e0 e73c
000002c0: e705 a2bc 7a1e cc3b 1fec 6fbd 7f70 13be
000002d0: aad9 24bd acdf c0bc 6a73 da3d e368 f3bd
000002e0: 501f 90bd 12d4 a43d c033 c8bd 31bf da3d
000002f0: e645 04be 1f1d 33be 5fa8 963d 9833 c7bd
00000300: 079a 94be 590d 983d 2d19 8abe 18fa b43d
00000310: f523 eabd cfd5 45be 11c3 76bb fbff 3a3d
00000320: 0e6a 40bc 254c 313a 3afc 823d 37fb 793d
00000330: 5ff0 523c e601 aebb 2f0f 913d 6b0a 77bd
00000340: 9ceb 8a3d ddf1 29bb cb34 3e3d d5b1 86bd
00000350: a812 a53c 601f e0bc 1465 43bd 70c2 533d
00000360: cb91 7dbd e5a0 933c 5bd7 313c cd22 c63b
00000370: 9c7a c7bc e40e 93bc 3e74 44bd 5d3f 343d
00000380: 1b88 f83c a335 4d3d 5d9b 33bd 0a1b 78bd
00000390: ecfd 67bc 143a 093d 769c fabc 7119 d4bc
000003a0: 204e 153c 1c23 0b3d b8fe febc c5c3 2c3d
000003b0: 2379 883d 41c6 203d 026d 42bd d779 4b3d
000003c0: 590b 01bd 78e2 23bd 5a6a 8b3d e6cb 3abd
000003d0: 1e02 66bd d75f 29bd c985 52bb 3939 a73c
000003e0: cffa 353b 8142 503d 8206 ddbc f179 b5bb
000003f0: e4c9 60bd f476 98ba 7eba 2dbc 8ce7 0bbd

net.0.bias f4 [256]
0.051927086 -0.053404514 -0.0029498714 -0.03568724 -0.06594055 0.014670457 -0.048991807 -0.019869212
-0.032689538 0.031736493 -0.006481175 -0.070800215 -0.08892695 0.0051836474 0.05757608 -0.09252029
-0.06643878 -0.0041935123 -0.032803424 0.039588902 0.013406744 -0.105430305 0.011878644 -0.005987397
0.014424911 -0.02441541 -0.010843864 -0.07439761 0.019692544 -0.049283043 -0.0027236373 -0.10463353
-0.047422092 -0.034727216 -0.025464354 -0.036249336 -0.010068954 0.020319652 -0.025604937 -0.045085933
0.0030925039 -0.06905983 0.0038527378 0.01302612 -0.05692292 -0.044736974 0.044409346 -0.0039105946
-0.04866002 -0.005805882 -0.011498951 -0.08248234 -0.09514947 0.03413782 -0.058797807 0.0632005
-0.055121902 -0.02206011 -0.025815535 -0.06392544 -0.025449742 -0.081735626 0.042411473 -0.029030323
-0.13209388 -0.10738972 -0.04561332 0.011692179 0.05705342 0.0038948997 -0.16396129 -0.01581122
0.043613974 0.00397619 -0.069953196 0.038521197 0.03523256 0.020530181 -0.09929729 0.053201266
-0.13275713 0.028952615 -0.09268316 -0.030934438 0.017615663 -0.022017416 -0.0045226067 0.004610755
-0.011695351 0.029395347 0.037923742 -0.020127196 0.0011651189 -0.07234182 -0.06726015 -0.0052303476
-0.09247953 -0.043815777 0.03150256 -0.03841563 -0.05056986 -0.1101378 -0.010783683 0.021659836
-0.019497292 -0.028584097 -0.024422023 -0.031214297 -0.013442139 -0.025889156 -0.07892868 0.016372634
-0.053683974 -0.0013922402 0.049060173 -0.08651892 0.04319493 -0.006500416 -0.09431146 0.008331668
-0.051075183 -0.06951046 -0.13795422 -0.048880238 0.043304354 -0.00247778 -0.10138039 0.0161723
-0.029910812 0.016470749 -0.044930425 -0.062852904 -0.09847523 -0.08906649 -0.00943808 -0.09371038
-0.041097816 -0.05324967 0.03302897 -0.059039596 -0.031933002 0.036925603 -0.0016235792 0.01885875
0.0251151 -0.07007447 -0.093750395 0.03848167 -0.12661037 0.013167368 -0.038245592 -0.046027012
0.020570286 0.015853427 0.03708949 -0.090525165 0.07519592 0.03412965 0.011407856 -0.11993863
0.01589335 -0.028487189 -0.029314842 0.057953037 -0.1070145 -0.051383846 -0.037384193 -0.06430656
-0.024487594 0.0625781 -0.11082063 -0.029150976 -0.027721263 -0.076921836 -0.034582727 -0.03131341
-0.020627765 -0.046810985 0.0328757 0.00043985803 -0.011919929 0.028719202 0.033583533 -0.008050474
-0.04201342 -0.015959626 -0.05953271 0.030096028 0.008200311 -0.009461673 -0.0055644806 -0.033258297
-0.025692273 -0.11905061 -0.009384706 -0.061034232 -0.07161819 -0.1119673 -0.011733404 0.06560031
-0.04511355 -0.026396215 0.052718263 0.09814245 0.06793887 -0.04705231 -0.040960904 0.061831407
5.2802352e-05 -0.07258742 0.02715573 0.027305406 -0.04814446 -0.048641104 0.017193135 -0.030129476
-0.03155618 -0.08210886 0.02300464 -0.055415574 0.109060824 -0.16261587 -0.059604123 0.056119516
0.043352842 -0.11446587 -0.06653692 -0.014906053 -0.053406294 0.02085677 0.0023122204 -0.05065068
0.058671013 -0.045388117 -0.07451922 -0.081936456 0.09500331 -0.084798165 0.037615597 -0.03940718
-0.045512322 0.03799031 0.049506318 -0.03451164 -0.030549731 0.054074273 0.06970843 0.044735916
-0.041107945 -0.14589553 -0.055324107 -0.061017837 -0.09282352 0.04527965 -0.085871235 0.026855597
00000000: 7fb1 543d b1be 5abd a152 41bb c92c 12bd
00000010: d70b 87bd 5b5c 703c a2ab 48bd c2c4 a2bc
00000020: 77e5 05bd 20fe 013d 0960 d4bb b4ff 90bd
00000030: 551f b6bd 96db a93b e5d4 6b3d 477b bdbd
00000040: 0e11 88bd bb69 89bb e25c 06bd f927 223d
00000050: f6a7 5b3c d8eb d7bd a59e 423c ed31 c4bb
00000060: 7656 6c3c d302 c8bc 76aa 31bc c65d 98bd
00000070: 4252 a13c 04dd 49bd 0d7f 32bb 1b4a d6bd
00000080: ab3d 42bd 203e 0ebd 9f9a d0bc 2f7a 14bd
00000090: 41f8 24bc 6675 a63c 72c1 d1bc 07ac 38bd
000000a0: 9bab 4a3b 3d6f 8dbd 377e 7c3b 826b 553c
000000b0: 0228 69bd 1e3e 37bd 93e6 353d 7224 80bb
000000c0: bb4f 47bd 453f bebb 1966 3cbc 80ec a8bd
000000d0: badd c2bd 19d4 0b3d f8d5 70bd 446f 813d
000000e0: 81c7 61bd 67b7 b4bc 1a7b d3bc 57eb 82bd
000000f0: fa7b d0bc 0265 a7bd a7b7 2d3d 00d1 edbc
00000100: 9e43 07be 24ef dbbd 08d5 3abd 8e90 3f3c
00000110: d9b0 693d 9341 7f3b 78e5 27be 8886 81bc
00000120: 91a4 323d b34a 823b 9f43 8fbd 67c8 1d3d
00000130: 0450 103d e92e a83c 615c cbbd 92e9 593d
00000140: 7cf1 07be 092e ed3c abd0 bdbd 386a fdbc
00000150: b94e 903c de5d b4bc 6032 94bb d115 973b
00000160: dc9d 3fbc 83ce f03c ed55 1b3d cae1 a4bc
00000170: e7b6 983a f327 94bd b1bf 89bd 5663 abbb
00000180: e865 bdbd 2c78 33bd d408 013d b559 1dbd
00000190: 5722 4fbd ed8f e1bd 0bae 30bc f86f b13c
000001a0: c9b8 9fbc 3229 eabc b210 c8bc 20b5 ffbc
000001b0: 6b3c 5cbc 7f15 d4bc 5ca5 a1bd e71f 863c
000001c0: bae3 5bbd d47b b6ba 52f3 483d d530 b1bd
000001d0: 2bed 303d 7101 d5bb 5e26 c1bd 8c81 083c
000001e0: 3634 51bd 805b 8ebd df43 0dbe a536 48bd
000001f0: e85f 313d 4062 22bb 86a0 cfbd c57b 843c
00000200: 8507 f5bc aaed 863c f708 38bd 06b9 80bd
00000210: 62ad c9bd 7e68 b6bd 2da2 1abc 3aeb bfbd
00000220: 2f56 28bd 531c 5abd 6349 073d 81d3 71bd
00000230: 2ecc 02bd 4d3f 173d 47ce d4ba aa7d 9a3c
00000240: 2fbe cd3c 3483 8fbd 3500 c0bd f59e 1d3d
00000250: 26a6 01be f2bb 573c 69a7 1cbd d286 3cbd
00000260: 0483 a83c 0cdf 813c 26eb 173d 4265 b9bd
00000270: 5200 9a3d 88cb 0b3d 04e8 3a3c 62a2 f5bd
00000280: c532 823c f75d e9bc ae25 f0bc 2a60 6d3d
00000290: 6b2a dbbd de77 52bd 2b20 19bd 28b3 83bd
000002a0: 359a c8bc f228 803d edf5 e2bd 07ce eebc
000002b0: b417 e3bc 3289 9dbd 9ea6 0dbd 7d42 00bd
000002c0: 8ffb a8bc e0bc 3fbd aca8 063d bf9c e639
000002d0: ce4b 43bc 8844 eb3c e38e 093d 23e6 03bc
000002e0: 4416 2cbd c3bd 82bc 92d8 73bd f28b f63c
000002f0: 995a 063c 2205 1bbc 3f56 b6bb da39 08bd
00000300: 9a78 d2bc ced0 f3bd 4fc2 19bc 08ff 79bd
00000310: 8fac 92bd 1d4f e5bd 773d 40bc 7559 863d
00000320: fcc8 38bd e03c d8bc 1bef 573d e9fe c83d
00000330: 8923 8b3d ecb9 40bd 9fc6 27bd ee42 7d3d
00000340: 1878 5d38 b7a8 94bd b275 de3c 96af df3c
00000350: 2033 45bd e53b 47bd 9ed8 8c3c 17d2 f6bc
00000360: 0e41 01bd b128 a8bd 3a74 bc3c 71fb 62bd
00000370: 485b df3d c684 26be 7423 74bd 94dd 653d
00000380: c092 313d 156d eabd 8244 88bd 8538 74bc
00000390: 8fc0 5abd d1db aa3c 9f88 173b 1677 4fbd
000003a0: 0451 703d e4e8 39bd 889d 98bd 4dce a7bd
000003b0: 1891 c23d a9aa adbd d012 1a3d 6c69 21bd
000003c0: 216b 3abd ba9b 1b3d 23c7 4a3d 145c 0dbd
000003d0: 6e43 fabc fc7c 5d3d 4bc3 8e3d 023d 373d
000003e0: ce60 28bd a365 15be 889b 62bd d7ed 79bd
000003f0: 421a bebd 2777 393d 42dd afbd 4500 dc3c

net.2.weight f4 [256, 256]
0.03696008 -0.04005435 0.012243296 -0.03960935 0.0015907983 -0.018591724 -0.05807542 -0.016661318
-0.08945885 0.02194516 0.013254595 -0.09242753 0.043559115 -0.051480625 0.0134730935 0.02194798
0.0331051 -0.2624601 -0.02058284 -0.11202705 -0.03936635 -0.21967937 -0.062835164 0.0028963897
0.021186855 0.12774695 -0.13521236 0.045037307 -0.029550316 -0.015109946 -0.035185736 -0.025681427
0.04717492 0.056611553 0.056337666 -0.11471016 -0.028754031 0.03698876 -0.049281035 0.07378681
-0.06501474 -0.0334685 -0.4731122 0.01152414 -0.054415286 -0.179479 -0.00650768 0.00763806
-0.027038712 -0.040661648 0.015091878 -0.016119404 0.05279898 0.039490383 -0.06313049 0.020208308
0.042431846 -0.013596101 -0.03976588 0.07524477 -0.04873405 -0.0824373 0.004756132 -0.0069419937
0.017196262 0.12415365 0.03299111 -0.1182917 0.035592094 -0.24027003 0.009389214 0.20214507
-0.043343067 -0.06748174 0.17812292 0.07462211 -0.07782656 -0.19395988 0.045789603 -0.01958145
0.044519544 -0.0024382973 0.014939208 -0.07591046 0.05218212 0.046755496 -0.30840197 -0.010271026
-0.06763539 -0.18304896 0.049799394 -0.46770063 -0.010293335 -0.023851965 0.06335764 -0.020409951
-0.028693933 0.050419573 0.059842702 -0.3908631 -0.13126707 -0.07783017 -0.17852098 0.044339545
0.03278388 0.039205845 -0.22513118 -0.058086105 -0.18162563 -0.20409471 0.02767992 -0.08545295
0.0073578935 -0.22737417 0.0497395 -0.026369981 -0.036410313 0.020969179 -0.03910786 -0.016047128
-0.021004282 0.045285072 -0.019928087 0.016946288 -0.017313858 -0.015715612 -0.012851564 -0.012055366
-0.18346287 0.065026455 0.034761354 -0.023049837 0.029508378 0.052207083 -0.05688686 -0.17478803
0.18184346 0.05288606 -0.029400166 -0.032735802 -0.01132189 -0.10691204 -0.012941803 0.039307576
-0.12196265 0.037103012 -0.22315341 0.05262002 -0.17531198 0.063248515 0.04571276 0.022232046
0.041748933 -0.036789484 0.048775055 -0.050235245 -0.014664905 -0.02921597 -0.030177768 0.018335529
0.031287983 -0.06437355 -0.00988646 -0.0507271 -0.030065345 -0.06832372 0.053956106 0.0049732025
0.09692094 -0.07872436 0.02196122 -0.05410508 0.01182956 0.061236177 0.047873184 0.004868097
-0.076906934 -0.02954854 0.1762666 0.0075593805 -0.014923808 0.03548347 -0.14309509 0.026673324
0.09622611 -0.00047104634 -0.013171989 0.09337477 0.022555565 -0.09012479 -0.018568056 -0.03996217
-0.014498217 -0.045980338 0.01584754 -0.010581412 -0.024035431 0.05142539 -0.15760793 -0.0020428465
0.115152285 0.041768394 0.07458044 0.026188951 -0.034427233 -0.028706305 0.018357132 0.11868177
0.059543576 0.0602248 0.06173376 -0.19696657 0.01667104 0.03644086 0.08358456 0.010460096
-0.031058155 -0.0462132 0.02588824 -0.04559468 0.0345559 0.04889477 0.04041642 0.069263875
-0.009121868 0.00047213805 0.008560203 0.038527705 -0.052096777 0.013172504 0.024910398 -0.07329495
-0.02857742 -0.09880111 0.0019633234 -0.019271884 0.03121072 -0.018904237 0.04922391 -0.017066643
0.0396536 0.03171197 -0.039500054 -0.09854375 0.021319399 0.030258091 -0.038268123 -0.04723623
0.013288478 0.05529656 -0.05537661 0.018149626 -0.19362448 -0.040667444 0.036471702 0.03609018
00000000: 7463 173d 0810 24bd 1b98 483c 6a3d 22bd
00000010: 5582 d03a ac4d 98bc 7ee0 6dbd 517d 88bc
00000020: 3436 b7bd 56c6 b33c cd29 593c a54a bdbd
00000030: 0b6b 323d 59dd 52bd 40be 5c3c 40cc b33c
00000040: 3799 073d 2c61 86be 589d a8bc 706e e5bd
00000050: 9c3e 21bd a1f3 60be b9af 80bd 5bd1 3d3b
00000060: 0e90 ad3c 19d0 023e 1c75 0abe 0a79 383d
00000070: 8113 f2bc b58f 77bc eb1e 10bd db61 d2bc
00000080: 7d3a 413d 84e1 673d 53c2 663d 29ed eabd
00000090: 938d ebbc 8781 173d e9da 49bd 8a1d 973d
000000a0: 7326 85bd 4416 09bd c33b f2be bfcf 3c3c
000000b0: 90e2 5ebd 58c9 37be 603e d5bb b148 fa3b
000000c0: 4a80 ddbc d48c 26bd ed43 773c d70c 84bc
000000d0: be43 583d abc0 213d 8f4a 81bd e58b a53c
000000e0: 04cd 2d3d 2ec2 5ebc 8ce1 22bd ee19 9a3d
000000f0: 5b9d 47bd e3d4 a8bd 54d9 9b3b aa79 e3bb
00000100: 2ddf 8c3c 4544 fe3d b021 073d eb42 f2bd
00000110: 04c9 113d 5909 76be 38d5 193c 1eff 4e3e
00000120: 8088 31bd de33 8abd db65 363e 7ad3 983d
00000130: 8863 9fbd 6b9d 46be e18d 3b3d 4769 a0bc
00000140: 205a 363d d7cb 1fbb 94c3 743c f176 9bbd
00000150: ebbc 553d b182 3f3d dde6 9dbe ce47 28bc
00000160: 6c84 8abd 3071 3bbe 73fa 4b3d 7576 efbe
00000170: 60a5 28bc 3265 c3bc a6c1 813d c532 a7bc
00000180: 8a0f ebbc c184 4e3d 9f1d 753d 351f c8be
00000190: e06a 06be 6d65 9fbd 34ce 36be 629d 353d
000001a0: 6448 063d 4f96 203d ca88 66be b2eb 6dbd
000001b0: 12fc 39be 34fe 50be 00c1 e23c f501 afbd
000001c0: 7c1a f13b c6d4 68be a5bb 4b3d dc05 d8bc
000001d0: fb22 15bd 8ec7 ab3c 902f 20bd 4475 83bc
000001e0: 2c11 acbc d77c 393d 3a40 a3bc f1d2 8a3c
000001f0: cbd5 8dbc 07be 80bc 5e8f 52bc df83 45bc
00000200: b1dd 3bbe 972c 853d ec61 0e3d 03d3 bcbc
00000210: 8ebb f13c 18d7 553d 3202 69bd a2fb 32be
00000220: 2c35 3a3e 0e9f 583d 9ed8 f0bc fa15 06bd
00000230: 737f 39bc b3f4 dabd db09 54bc fb00 213d
00000240: 8ec7 f9bd 54f9 173d 5482 64be 1788 573d
00000250: fc84 33be 7088 813d 4e3d 3b3d fb1f b63c
00000260: ee00 2b3d 92b0 16bd 5ac8 473d 79c3 4dbd
00000270: 1245 70bc 5456 efbc 5e37 f7bc 6434 963c
00000280: d427 003d 48d6 83bd d2fa 21bc 38c7 4fbd
00000290: 994b f6bc 4eed 8bbd 1401 5d3d 3ff6 a23b
000002a0: 7c7e c63d 3d3a a1bd 04e8 b33c 4a9d 5dbd
000002b0: c5d0 413c c9d2 7a3d ac16 443d 8f84 9f3b
000002c0: 6281 9dbd c80f f2bc 3b7f 343e aeb4 f73b
000002d0: fd82 74bc 1d57 113d 8587 12be 0482 da3c
000002e0: 3212 c53d c5f6 f6b9 53cf 57bc 453b bf3d
000002f0: 73c6 b83c 5993 b8bd 091c 98bc 5faf 23bd
00000300: ee89 6dbc e155 3cbd b3d2 813c a95d 2dbc
00000310: f4e5 c4bc 6ea3 523d f963 21be 47e1 05bb
00000320: f6d4 eb3d 5615 2b3d a1bd 983d 368a d63c
00000330: 9203 0dbd 7c29 ebbc b261 963c 6e0f f33d
00000340: f7e3 733d 48ae 763d 8adc 7c3d 9bb1 49be
00000350: b491 883c 0343 153d 622e ab3d d360 2b3c
00000360: ac6d febc 0d4a 3dbd 9313 d43c 7dc1 3abd
00000370: 7d8a 0d3d e245 483d b08b 253d 38da 8d3d
00000380: e373 15bc 4c89 f739 1840 0c3c 3acf 1d3d
00000390: 6e63 55bd 7cd1 573c e410 cc3c aa1b 96bd
000003a0: 321b eabc 3d58 cabd 1aab 003b 12e0 9dbc
000003b0: a0ad ff3c 0fdd 9abc 039f 493d 58cf 8bbc
000003c0: d06b 223d 69e4 013d cfca 21bd 4ed1 c9bd
000003d0: 05a6 ae3c d1df f73c 09bf 1cbd c77a 41bd
000003e0: ebb7 593c a57e 623d 96d2 62bd 86ae 943c
000003f0: 7f45 46be e892 26bd 5a63 153d 4cd3 133d

net.2.bias f4 [256]
0.01338135 0.018386671 0.0050715576 0.027099393 0.09798746 0.049446266 0.06703743 -0.01773913
-0.0074772015 -0.021191746 0.111492775 0.011295622 -0.0024194112 -0.014515498 -0.057619512 -0.017660836
-0.041003495 0.07441555 -0.057199005 -0.05539223 0.081071064 0.067132115 -0.054010626 -0.06735354
-0.0150923375 -0.04579066 0.05079738 0.087393805 -0.06827519 0.0012787791 -0.00659068 0.06343046
0.019334627 -0.022570197 0.061791692 -0.042647723 0.036796704 -0.041878752 -0.04180505 -0.04930987
-0.029802553 -0.057968758 -0.00012030548 -0.05040961 0.055923764 -0.038753875 -0.029883344 0.035270855
-0.025533402 -0.02010727 0.02359365 -0.021948138 0.057813186 0.015722727 0.053030882 0.0010351597
0.015181276 0.006797371 0.03690623 0.0225653 -0.05461827 -0.053350594 -0.05464477 -0.054761127
-0.022828842 -0.030587368 0.11789656 0.057030465 0.06387711 -0.022785597 0.054966677 0.04190734
-0.037085477 0.045262977 0.055003516 -0.020556109 -0.040734135 -0.0071707023 -0.061024304 -0.055912115
0.042676494 0.036659572 0.012686377 -0.013767865 -0.02404343 -0.07701741 0.010553621 -0.032042734
-0.02747353 0.08906421 -0.022893762 0.04744648 -0.006033306 -0.02881565 -0.024412034 -0.02460551
-0.070676275 0.09706693 -0.009806991 -0.042151608 0.014881316 -0.011098402 0.06783145 0.026751876
-0.0062422063 0.06702317 0.017707419 0.0021123295 -0.055699565 0.021293422 -0.0041298657 0.019740852
0.012046572 0.048130136 0.03269879 -0.08857416 -0.017386677 0.010029125 0.063092664 0.07826287
0.107273676 -0.0038326764 -0.0283523 -0.038137622 0.08979783 0.0016361849 -0.018724112 -0.025882024
-0.08157179 -0.102137946 0.00016265172 -0.08947417 0.00044640034 -0.04751587 0.054457404 -0.018719738
0.0436685 -0.050626162 -0.033739317 0.019652404 -0.020452984 -0.007390483 -0.016994167 0.023337288
-0.042445652 0.01618241 -0.013367931 -0.08162042 -0.021046177 0.011929134 -0.017435461 -0.030543331
-0.059395637 0.011138945 0.01692909 0.034380887 0.072158314 -0.01638285 0.019915054 0.045264706
0.00987403 0.03303185 -0.036666397 0.05331428 0.05708418 -0.017626194 0.0032895685 0.038404636
0.0086486265 -0.018436 0.022728942 0.029392676 0.0054226457 0.03141003 0.018426588 0.04032835
0.026163775 0.007818423 0.08105802 -0.04415647 0.07442658 -0.032122 -0.038310304 -0.06840058
0.07039276 0.05330456 0.11416048 0.06253238 0.024618423 -0.038652316 0.05291623 -0.0010371703
0.09188537 -0.06995404 -0.010701612 -0.013714633 -0.06307867 0.004597588 -0.02955101 0.036821347
0.0795667 -0.038511656 0.07628506 -0.031374358 0.042629156 -0.004847565 0.08017133 0.07540917
-0.05189921 0.074447624 0.035216205 -0.06776806 -0.053949647 0.016648475 -0.05604868 -0.0486208
0.08189517 -0.0064392877 0.08324126 -0.030668942 -0.019054102 0.054826796 0.02906735 -0.0042299484
0.03832153 -0.0019401981 -0.0030722981 0.0072641373 0.030976215 -0.06855256 -0.0031968902 -0.024797479
0.0033875715 0.007700244 -0.02007883 0.022694448 0.054788116 -0.068139195 0.04106098 0.033953935
-0.02523567 -0.0014272071 0.0016415312 -0.045897413 0.011096135 -0.070456214 -0.0067320913 -0.01662543
0.016757589 0.08444887 0.061842147 0.036866147 0.005865661 0.013473898 0.05526541 -0.03035004
00000000: 733d 5b3c a59f 963c 4f2f a63b 8cff dd3c
00000010: a6ad c83d 2b88 4a3d ec4a 893d a751 91bc
00000020: 5003 f5bb 509a adbc 5356 e43d 4611 393c
00000030: fc8e 1ebb 69d2 6dbc 7002 6cbd 75ad 90bc
00000040: 48f3 27bd 2e67 983d 8149 6abd f7e2 62bd
00000050: 9608 a63d 907c 893d 3f3a 5dbd a7f0 89bd
00000060: da45 77bc fd8e 3bbd ea10 503d 86fb b23d
00000070: ddd3 8bbd b59c a73a a2f6 d7bb d4e7 813d
00000080: a763 9e3c 22e5 b8bc 4919 7d3d 61af 2ebd
00000090: 24b8 163d 0e89 2bbd c63b 2bbd 25f9 49bd
000000a0: 7c24 f4bc a670 6dbd 834c fcb8 4f7a 4ebd
000000b0: 5110 653d 62bc 1ebd eacd f4bc 2c78 103d
000000c0: 6d2b d1bc 00b8 a4bc 7847 c13c 95cc b3bc
000000d0: 85cd 6c3d f3cc 803c e936 593d 32ae 873a
000000e0: e3ba 783c 7bbc de3b fd2a 173d ddda b83c
000000f0: 68b7 5fbd 2786 5abd 32d3 5fbd 344d 60bd
00000100: 8d03 bbbc 5c92 fabc c073 f13d c798 693d
00000110: 01d2 823d dca8 babc bd24 613d 08a7 2b3d
00000120: f1e6 17bd ac65 393d 5e4b 613d 4965 a8bc
00000130: d6d8 26bd 36f8 eabb 9ff4 79bd 1a04 65bd
00000140: 8ccd 2e3d 5928 163d 86da 4f3c 9c92 61bc
00000150: baf6 c4bc 4ebb 9dbd 18e9 2c3c 3e3f 03bd
00000160: 2b10 e1bc 4c67 b63d b38b bbbc 3d57 423d
00000170: 0ab3 c5bb cc0e ecbc bffb c7bc 7f91 c9bc
00000180: b9be 90bd 07cb c63d 80ad 20bc 2aa7 2cbd
00000190: c3d0 733c 12d6 35bc 37eb 8a3d c026 db3c
000001a0: 6c8b ccbb 7243 893d 260f 913c 026f 0a3b
000001b0: 3a25 64bd 8b6f ae3c d353 87bb 91b7 a13c
000001c0: fc5e 453c 1b24 453d 2bef 053d 5f66 b5bd
000001d0: 816e 8ebc 3351 243c ba36 813d 4948 a03d
000001e0: 4db2 db3d a42d 7bbb 1543 e8bc 3236 1cbd
000001f0: ede7 b73d 4175 d63a 4f63 99bc 8a06 d4bc
00000200: 1c0f a7bd b32d d1bd 7d8d 2a39 3c3e b7bd
00000210: d70a ea39 00a0 42bd ba0e 5f3d 235a 99bc
00000220: bedd 323d 615d 4fbd 3d32 0abd 14fe a03c
00000230: 048d a7bc dd2b f2bb 5a37 8bbc d72d bf3c
00000240: 7edb 2dbd f990 843c 2b05 5bbc 9b28 a7bd
00000250: 0869 acbc 6a72 433c d0d4 8ebc 0236 fabc
00000260: d748 73bd 1f80 363c e0ae 8a3c f9d2 0c3d
00000270: bdc7 933d 5435 86bc e524 a33c 7c67 393d
00000280: afc6 213c 684c 073d 812f 16bd 1360 5a3d
00000290: 1ad1 693d cf64 90bc cd95 573b 2e4e 1d3d
000002a0: f8b2 0d3c 1807 97bc 0c32 ba3c e9c8 f03c
000002b0: 73b0 b13b cea7 003d 5bf3 963c 572f 253d
000002c0: 6a55 d63c d818 003c bf01 a63d 6add 34bd
000002d0: f66c 983d 5c92 03bd 44eb 1cbd 9a15 8cbd
000002e0: 142a 903d e255 5a3d f8cc e93d fa10 803d
000002f0: 93ac c93c e451 1ebd b0be 583d a9f1 87ba
00000300: 662e bc3d 1044 8fbd d055 2fbc 57b3 60bc
00000310: 642f 81bd 5da7 963b f614 f2bc fbd1 163d
00000320: def3 a23d 66be 1dbd 573b 9c3d 6682 00bd
00000330: e99b 2e3d 53d8 9ebb de30 a43d 1f70 9a3d
00000340: 4494 54bd ff77 983d de3e 103d fbc9 8abd
00000350: 4efa 5cbd 6262 883c 4d93 65bd 9b26 47bd
00000360: a8b8 a73d a900 d3bb 657a aa3d 6f3d fbbc
00000370: 5917 9cbc 1092 603d a71e ee3c 619b 8abb
00000380: 09f7 1c3d 3f4e feba 9c58 49bb 0008 ee3b
00000390: d5c1 fd3c 4965 8cbd eb82 51bb 1524 cbbc
000003a0: 0502 5e3b 5452 fc3b 5c7c a4bc b5e9 b93c
000003b0: 8169 603d 908c 8bbd 8f2f 283d 4813 0b3d
000003c0: 09bb cebc 2011 bbba a628 d73a edfe 3bbd
000003d0: 90cc 353c 594b 90bd e098 dcbb 0e32 88bc
000003e0: 3647 893c 87f3 ac3d 314e 7d3d f500 173d
000003f0: bb34 c03b a0c1 5c3c fc5d 623d a6a0 f8bc

net.4.weight f4 [3, 256]
-0.042510316 0.06879673 -0.07218043 -0.15969472 -0.08667933 0.05222365 -0.08853432 -0.007804139
-0.05374931 -0.056100905 0.15462767 0.0038769108 -0.03399967 -0.13802664 0.014792413 0.037822515
-0.09357971 -0.061839182 -0.050156876 -0.021789001 0.061483536 -0.0034871085 0.16170871 -0.03721116
-0.030931497 -0.0014720963 0.068475775 0.04222116 -0.029984249 -0.024116514 -0.05293003 -0.079656765
-0.017188754 -0.017955823 0.033498216 -0.014241129 -0.05447928 0.056484185 0.022204185 -0.03696083
-0.020919641 -0.018155644 0.05391737 0.020803545 -0.052563958 -0.06933581 -0.0071823862 -0.020770377
-0.035143327 -0.01255049 0.0039073494 0.023011222 0.057608943 -0.01141543 0.042636346 0.08306164
-0.07101924 0.025027076 0.014874473 -0.0037852721 -0.3608916 0.20810029 0.0072098533 -0.025027642
-0.04023095 -0.05669049 0.06430741 0.12347903 0.052133586 -0.021661468 0.044862986 0.12223995
0.04102605 0.013316472 -0.027423052 -0.02663078 -0.0032297357 -0.0847257 0.0096134795 0.010670454
0.0139815705 -0.03862285 -0.015854625 -0.019132288 0.010892921 0.044026602 -0.022895265 0.0033335183
0.047689945 0.047075663 -0.031134611 0.20748392 0.25500315 0.015534145 -0.028513618 0.005030365
-0.031770304 0.060340635 -0.023123672 -0.008126699 0.18909945 0.0490091 -0.072056204 0.03457718
-0.00926841 0.010014831 0.090693995 -0.019569265 -0.02867168 -0.02752446 0.05949613 0.03259053
0.0012776715 0.0053987107 -0.038277645 0.051032424 -0.06241037 -0.09678392 0.038540233 0.05880437
0.089847974 0.02668737 -0.02625934 -0.0003406431 0.080711335 -0.008247568 -0.030945186 0.035503823
0.0051290914 -0.12421435 -0.07398647 0.22979064 0.012182847 0.008152315 -0.048218343 -0.0064723506
-0.04664908 0.09152025 0.045563802 0.05037088 -0.00094075943 -0.00059928955 -0.04851279 -0.05702215
0.0982268 0.023925738 -0.039325096 -0.01742609 -0.019962648 -0.21422672 0.0011172465 -0.1120912
-0.040451467 -0.0066132704 0.020228323 0.0786904 0.053842515 0.013324483 0.00710952 -0.028945604
0.0066993 0.024878278 -0.0011082002 -0.017415402 0.027262943 0.0067130597 0.044349637 0.04985651
0.07329171 0.25456113 0.044544637 -0.013807522 -0.06059147 0.17755301 0.043062557 -0.024962828
-0.0064600594 -0.041405756 0.15947443 0.017498754 0.036790077 -0.00455457 0.017753592 -0.036773693
0.036141165 0.040668607 0.583431 -0.012270182 -0.018876642 -0.022056026 0.014798703 0.010516682
0.05395371 0.017473796 -0.02336739 -0.006607865 -0.040385276 -0.052742217 0.27928638 0.0059031663
0.10671145 0.02159337 -0.06637092 -0.049759224 0.011238872 -0.01839076 -0.05431321 0.039832927
0.03002244 -0.029827803 -0.03501386 0.27903026 -0.027074967 0.049467098 -0.028545624 -0.021043878
0.005726455 -0.04835546 0.11290135 -0.014494588 0.050770152 0.015706083 0.0070867506 0.033379942
-0.02266149 -0.04273597 0.051302385 -0.048231103 0.02847246 0.011296633 -0.029781463 0.010280722
-0.021039866 0.044514034 0.045893617 0.021328764 -0.059242956 -0.00898426 0.034407858 0.030855956
0.06965192 0.044588897 -0.03933285 -0.01766377 -0.09016021 0.018884843 0.0060243453 -0.042907596
0.0750214 0.04869856 -0.2847737 0.016437974 -0.007926787 -0.19658782 0.04396891 -0.05511402
00000000: 4c1f 2ebd 4de5 8c3d 55d3 93bd 0387 23be
00000010: ef84 b1bd 77e8 553d 7b51 b5bd ddb9 ffbb
00000020: 3d28 5cbd 10ca 65bd b756 1e3e c513 7e3b
00000030: 3d43 0bbd db56 0dbe e15b 723c c8eb 1a3d
00000040: b8a6 bfbd 154b 7dbd 4c71 4dbd d97e b2bc
00000050: 29d6 7b3d f987 64bb f896 253e bb6a 18bd
00000060: 0d64 fdbc 5bf3 c0ba 073d 8c3d 18f0 2c3d
00000070: 87a1 f5bc ff8f c5bc 29cd 58bd 1623 a3bd
00000080: 6ecf 8cbc 1718 93bc 6d35 093d a053 69bc
00000090: aa25 5fbd f65b 673d 8de5 b53c 3d64 17bd
000000a0: ab5f abbc 25bb 94bc 76d8 5c3d 326c aa3c
000000b0: 4e4d 57bd efff 8dbd 395a ebbb a326 aabc
000000c0: 73f2 0fbd 92a0 4dbc 3909 803b 0882 bc3c
000000d0: 5bf7 6b3d c907 3bbc 73a3 2e3d 391c aa3d
000000e0: 8972 91bd 9505 cd3c 10b4 733c 5412 78bb
000000f0: c9c6 b8be 3e18 553e a240 ec3b c506 cdbc
00000100: 35c9 24bd 4a34 68bd 9ab3 833d 93e2 fc3d
00000110: 078a 553d 6473 b1bc 40c2 373d f058 fa3d
00000120: ee0a 283d 552d 5a3c 4fa6 e0bc cb28 dabc
00000130: f9a9 53bb ab84 adbd db81 1d3c 21d3 2e3c
00000140: f512 653c fe32 1ebd 8fe1 81bc 51bb 9cbc
00000150: 3978 323c 3d55 343d da8e bbbc 2877 5a3b
00000160: 8856 433d 69d2 403d 030e ffbc aa76 543e
00000170: c68f 823e ed82 7e3c 6495 e9bc c3d5 a43b
00000180: 9421 02bd be27 773d db6d bdbc d925 05bc
00000190: 49a3 413e c4bd 483d 3492 93bd cda0 0d3d
000001a0: 87da 17bc 3f15 243c c6bd b93d b94f a0bc
000001b0: dfe0 eabc fa7a e1bc 37b2 733d a67d 053d
000001c0: 8b77 a73a abe7 b03b 05c9 1cbd 6007 513d
000001d0: 04a2 7fbd a636 c6bd 5ddc 1d3d dadc 703d
000001e0: 3702 b83d 799f da3c d41d d7bc 5898 b2b9
000001f0: fc4b a53d cf20 07bc c280 fdbc 756c 113d
00000200: f011 a83b 1864 febd 3886 97bd 3d4e 6b3e
00000210: 909a 473c 4a91 053c 9980 45bd 0316 d4bb
00000220: 1b13 3fbd f86e bb3d 1ca1 3a3d b251 4e3d
00000230: 4c9d 76ba a419 1dba 59b5 46bd 0f90 69bd
00000240: 222b c93d e9ff c33c 5a13 21bd 29c1 8ebc
00000250: b588 a3bc 405e 5bbe 9270 923a 1290 e5bd
00000260: 70b0 25bd 22b4 d8bb deb5 a53c 6f28 a13d
00000270: f889 5c3d ef4e 5a3c faf6 e83b 551f edbc
00000280: cd85 db3b 88cd cb3c 0741 91ba bfaa 8ebc
00000290: 8956 df3c 3af9 db3b f7a7 353d 5736 4c3d
000002a0: f719 963d d655 823e 7074 363d f238 62bc
000002b0: c32e 78bd 75d0 353e 5d62 303d d87e ccbc
000002c0: e8ae d3bb 1599 29bd 444d 233e 8c59 8f3c
000002d0: 31b1 163d 813e 95bb fb6f 913c 03a0 16bd
000002e0: c208 143d 2094 263d bc5b 153f e008 49bc
000002f0: 30a3 9abc d7ae b4bc 4276 723c 294e 2c3c
00000300: 91fe 5c3d 3525 8f3c f86c bfbc ca86 d8bb
00000310: 086b 25bd 3908 58bd a0fe 8e3e 596f c13b
00000320: 888b da3d 94e4 b03c 7aed 87bd 54d0 4bbd
00000330: 3f23 383c 38a8 96bc 8777 5ebd da27 233d
00000340: 9ff1 f53c 7059 f4bc b16a 0fbd 0edd 8e3e
00000350: 52cc ddbc 039e 4a3d 83d8 e9bc 3664 acbc
00000360: fca4 bb3b 6010 46bd d338 e73d b57a 6dbc
00000370: 5df4 4f3d 0baa 803c f937 e83b 68b9 083d
00000380: 97a4 b9bc ea0b 2fbd 7322 523d fa8d 45bd
00000390: 143f e93c 8315 393c 41f8 f3bc 7970 283c
000003a0: cc5b acbc 5954 363d f2fa 3b3d a9b9 ae3c
000003b0: bea8 72bd b832 13bc 41ef 0c3d a1c5 fc3c
000003c0: aaa5 8e3d d9a2 363d 7c1b 21bd 9cb3 90bc
000003d0: eba5 b8bd 63b4 9a3c df67 c53b e0bf 2fbd
000003e0: d2a4 993d 2478 473d dccd 91be eea8 863c
000003f0: 5bdf 01bc 514e 49be be18 343d 3dbf 61bd

net.4.bias f4 [3]
0.01935195 -0.028821107 0.04147528
00000000: fb87 9e3c 3e1a ecbc fce1 293d
