models/surrogate_model.pt (torch, 476277 bytes, 6 tensors)

net.0.weight f4 [256, 201]
-0.028526073 -0.0062275208 0.00489836 0.0032358118 0.008816341 0.0352081 0.039760716 -0.056399923
-0.018157512 0.031188713 -0.025049001 -0.043054193 -0.057676956 0.04020765 -0.00031508764 -0.008255255
0.055182595 0.03169413 -0.037711494 -0.038761146 0.071730666 0.059722938 0.034530696 -0.035503633
-0.047671136 -0.0047855806 -0.045938224 0.06503264 0.047911175 -0.05919431 0.031480975 0.017251648
0.02191777 -0.019631134 0.0078124464 -0.056512065 -0.02259418 0.039122898 0.059020266 0.0056150495
0.03673682 -0.013255143 -0.04498742 -0.0100783035 -0.017578734 0.04710261 -0.0389061 0.021669835
-0.004948119 0.0040610363 0.06681666 0.06549155 0.0558178 0.053184595 -0.053401254 -0.02078604
-0.026796727 0.044526495 -0.023387011 0.047590293 -0.04308085 -0.041801855 0.035393853 -0.034612462
-0.008775845 -0.047823485 -0.017459387 -0.037573446 -0.063479185 -0.034913488 0.051052324 -0.011460142
0.063658506 -0.05821636 -0.021751227 0.05650877 0.007911567 0.047237486 -0.024996197 -0.036178846
-0.043059368 0.029481886 -0.057635896 -0.046978384 0.052929252 0.046411004 -0.018863132 -0.014353314
-0.055135302 -0.064437225 -0.08051645 -0.012770678 -0.02331149 -0.019767337 -0.050511844 -0.014314751
0.017950375 -0.039206848 -0.08644122 0.017021101 0.04992649 0.021156762 0.05716893 0.0030619125
-0.046853237 -0.055793375 -0.05878695 -0.040872186 -0.07477154 -0.078874685 -0.033631466 -0.020687778
0.043776322 -0.02623163 0.045206938 0.039738286 -0.055688933 -0.022670904 0.024438914 0.05327804
-0.008211975 0.04233715 -0.0484221 -0.03370997 -0.073148236 0.028742865 -0.026311655 -0.009573209
-0.023584047 -0.06737912 0.040789254 0.047807418 0.05545457 0.05597965 0.052362446 0.008479997
0.008137047 -0.02567801 0.0065180454 -0.0063533373 0.046884876 0.0635177 0.060277328 0.019375924
-0.05617936 -0.063721396 -0.008020764 0.018421192 -0.02220386 -0.0039177486 0.023672696 0.05160212
0.02664842 0.06536574 0.05050181 0.016858796 -0.0236842 0.03816828 0.03907229 0.025410824
0.0020502822 0.019014759 0.011000304 -0.025306378 0.061527647 -0.046843074 -0.012454714 0.0086187115
0.053178363 0.016749179 -0.059097227 0.042351503 -0.050288662 0.033720575 -0.059743594 0.04035009
0.02883505 -0.05051029 -0.036314275 -0.012760341 -0.048273638 -0.015674744 0.0037576484 -0.064173564
0.008811858 -0.07281821 -0.027138518 -0.014929045 0.029874858 -0.06191778 0.050886564 0.055208404
-0.0030108502 0.057698786 0.06894663 -0.008318694 -0.029424088 -0.0383667 -0.025787849 0.07377516
-0.09461843 0.029257517 -0.00029302176 -0.04282491 -0.011339779 0.027430398 -0.05751246 0.029728938
0.009277155 0.00033072857 0.023924578 -0.032216243 -0.064422674 -0.025689062 0.05901954 -0.06939611
-0.042882394 0.054173484 -0.032945044 -0.012659651 -0.03949174 0.05183336 0.046131704 -0.019676575
-0.025996642 0.050358295 0.057598963 0.017865568 -0.054183606 -0.04998207 -0.0053938353 0.0029165368
-0.0030361784 -0.046263568 -0.05427146 -0.028581256 0.026665336 0.007622277 -0.034122426 0.039834987
0.04491996 -0.05215208 -0.0071293805 -0.05764513 0.058053195 -0.03473255 -0.06065864 0.0059340573
-0.017217673 -0.054550402 0.0020926746 -0.05877925 -0.06392953 0.045571666 -0.021131948 0.05352576
00000000: 83af e9bc 3b10 ccbb 6c82 a03b ea0f 543b
00000010: 6a72 103c 5e36 103d 22dc 223d 9b03 67bd
00000020: 10bf 94bc 797f ff3c 9033 cdbc 9859 30bd
00000030: ac3e 6cbd c7b0 243d 5932 a5b9 0d41 07bc
00000040: 2507 623d b4d1 013d 5e77 1abd 02c4 1ebd
00000050: 87e7 923d 0aa0 743d 0f70 0d3d 426c 11bd
00000060: cf42 43bd 5cd0 9cbb b829 3cbd d52f 853d
00000070: 823e 443d bc75 72bd 32f2 003d 5453 8d3c
00000080: e58c b33c 79d1 a0bc 8dff ff3b 3279 67bd
00000090: 6e17 b9bc 553f 203d 3cbf 713d 73fe b73b
000000a0: 5979 163d 192c 59bc bb44 38bd 781f 25bc
000000b0: 4701 90bc abee 403d 015c 1fbd f084 b13c
000000c0: d523 a2bb 7112 853b 2cd7 883d 6f20 863d
000000d0: 35a1 643d 17d8 593d 46bb 5abd 7c47 aabc
000000e0: cf84 dbbc 6a61 363d 1e96 bfbc 0aee 423d
000000f0: 8c75 30bd 6c38 2bbd 25f9 103d ccc5 0dbd
00000100: 90c8 0fbc 8fe2 43bd fd06 8fbc 9de6 19bd
00000110: 6001 82bd 7201 0fbd 3e1c 513d 52c3 3bbc
00000120: 645f 823d 4774 6ebd a12f b2bc bd75 673d
00000130: 849f 013c 187c 413d d3c4 ccbc 4530 14bd
00000140: 055f 30bd ff83 f13c 9e13 6cbd 686c 40bd
00000150: 58cc 583d 7719 3e3d db86 9abc 2a2a 6bbc
00000160: 8ed5 61bd aaf7 83bd cfe5 a4bd 1b3c 51bc
00000170: bdf7 bebc 1cef a1bc 82e5 4ebd 6b88 6abc
00000180: aa0c 933c 5c97 20bd 1808 b1bd d66f 8b3c
00000190: b87f 4c3d f250 ad3c f829 6a3d 5eaa 483b
000001a0: 2ee9 3fbd 9887 64bd 96ca 70bd 9869 27bd
000001b0: d221 99bd 0d89 a1bd 26c1 09bd 6a79 a9bc
000001c0: cd4e 333d b7e3 d6bc e92a 393d 9dc4 223d
000001d0: 141a 64bd 55b8 b9bc 1e34 c83c 133a 5a3d
000001e0: 858b 06bc b869 2d3d 4056 46bd 7713 0abd
000001f0: bece 95bd 2876 eb3c 8a8b d7bc f3d8 1cbc
00000200: 5533 c1bc 10fe 89bd a212 273d b6d1 433d
00000210: 5524 633d eb4a 653d 017a 563d afef 0a3c
00000220: 4051 053c b15a d2bc 5495 d53b a82f d0bb
00000230: 5b0a 403d 9115 823d 5ce5 763d 42ba 9e3c
00000240: 541c 66bd 5d80 82bd 8669 03bc 0ae8 963c
00000250: dfe4 b5bc 7560 80bb 3eed c13c bf5c 533d
00000260: ca4d da3c 79de 853d fcda 4e3d 751b 8a3c
00000270: 5e05 c2bc 5856 1c3d 440a 203d 5c2a d03c
00000280: 075e 063b d7c4 9b3c 9e3a 343c 524f cfbc
00000290: 6a04 7c3d 86de 3fbd db0e 4cbc 7f35 0d3c
000002a0: 8ed1 593d 9335 893c ef0f 72bd c578 2d3d
000002b0: 7cfb 4dbd 961e 0a3d b3b5 74bd 2346 253d
000002c0: 7c37 ec3c e1e3 4ebd 47be 14bd c010 51bc
000002d0: 94ba 45bd 5268 80bc e142 763b 6e6d 83bd
000002e0: 9c5f 103c b721 95bd 9951 debc f498 74bc
000002f0: 1ebc f43c 809d 7dbd 6e6e 503d 3522 623d
00000300: af51 45bb 9055 6c3d e433 8d3d 224b 08bc
00000310: c90a f1bc 6726 1dbd 0a41 d3bc 6e17 973d
00000320: 4fc7 c1bd 76ad ef3c b7a0 99b9 2c69 2fbd
00000330: 7bca 39bc b7b5 e03c 2f92 6bbd 1a8a f33c
00000340: 35ff 173c a365 ad39 7afd c33c 2ef5 03bd
00000350: 09f0 83bd de71 d2bc 79be 713d 8c1f 8ebd
00000360: 73a5 2fbd 04e5 5d3d 62f1 06bd 6d6a 4fbc
00000370: 17c2 21bd 384f 543d 99f4 3c3d c530 a1bc
00000380: e9f6 d4bc 8044 4e3d e4ec 6b3d d05a 923c
00000390: a1ef 5dbd 00ba 4cbd c5be b0bb 5e23 3f3b
000003a0: 9ffa 46bb de7e 3dbd c04b 5ebd 3d23 eabc
000003b0: 4371 da3c 4bc4 f93b f5c3 0bbd 032a 233d
000003c0: fefd 373d 6b9d 55bd 949d e9bb 4d1d 6cbd
000003d0: 30c9 6d3d b843 0ebd 3275 78bd 7b72 c23b
000003e0: 140c 8dbc 3e70 5fbd 4125 093b 83c2 70bd
000003f0: 7ced 82bd 5ba9 3a3d e81c adbc d43d 5b3d

net.0.bias f4 [256]
0.06040766 -0.054411825 -0.015212244 0.022968363 -0.04051588 -0.051660653 -0.03170467 -0.12877633
-0.07558458 -0.063882224 0.0013558739 -0.014511348 0.030399371 0.06463926 0.09081968 -0.02825939
0.020147989 -0.065091655 -0.072928265 -0.0096365465 0.087238885 -0.06312766 0.10226027 -0.034142945
0.054593205 0.018910984 -0.015245158 -0.11886188 -0.06757927 0.020435555 -0.007570568 -0.053143412
-0.04715485 -0.10704522 0.07212174 -0.11169306 -0.039636537 -0.060934983 0.053226907 -0.06491694
0.111939386 -0.11994267 0.047429897 0.093877904 0.091052435 -0.05813318 -0.029489305 -0.07531992
-0.050958395 0.002687201 -0.13118675 0.018196713 0.14510483 0.046034068 -0.058083456 0.1341575
0.032678895 0.011814421 0.14279008 0.16379838 -0.09221525 0.13047951 0.09818374 -0.06884025
-0.019049758 -0.081416406 0.032731336 -0.03616193 -0.13291644 0.096572556 -0.07390389 0.021531228
0.11076216 0.07220174 -0.019787386 0.15254456 0.0009436532 0.023460366 -0.07711531 -0.048383076
-0.022218635 0.13009198 0.060981505 -0.01818411 -0.011246436 -0.034777347 -0.008253778 -0.016790658
0.089472935 -0.020513646 0.017068483 -0.0027840377 0.032463428 0.048033208 -0.037084125 -0.015204647
-0.063842125 0.034509446 0.04880733 -0.09350927 -0.0023319244 0.10281119 -0.00087155745 -0.063047424
0.037585717 -0.0731751 0.056651242 0.092019446 -0.14017165 0.0017177518 -0.09446242 -0.13339138
-0.032961324 0.049151897 -0.13343234 0.022185815 -0.031141877 0.049950887 -0.0092999535 0.06307314
-0.050973646 -0.08272044 0.035249487 0.024808878 0.11176508 -0.076592706 -0.019808372 -0.03807528
0.02866662 -0.0527508 0.0062682983 0.05875469 0.09986327 -0.10874751 -0.04310647 -0.014094564
0.0042382837 -0.026282664 0.014558135 -0.057250675 -0.0143132815 0.032928143 -0.11347568 -0.10027616
-0.00012634874 0.08379457 0.05366049 -0.020013386 -0.09069253 0.058401875 -0.08158848 0.077980146
-0.007098298 0.1098849 0.073821664 0.115259066 0.14362016 0.017853484 -0.022587532 0.026996594
0.059898183 -0.0037131964 -0.11136285 -0.10422655 -0.08627941 0.046522584 -0.037813794 0.023191318
-0.05069114 0.048402846 0.037140053 -0.00632722 -0.083648436 -0.063317575 -0.016419752 -0.13130493
-0.07985093 0.042189643 0.03138358 0.024122275 -0.049152594 0.017616628 0.09415898 -0.028782109
-0.18258369 0.0558597 -0.024141757 0.1049437 -0.08138228 -0.0075522223 0.20181711 0.17619926
0.046770725 0.12621182 -0.046962254 0.038236175 0.020439547 -0.047840554 -0.02194806 -0.028978562
-0.06671181 -0.07364472 0.14593168 0.031859513 0.13288027 -0.07148319 -0.020570647 -0.06502596
0.0036005657 0.07680782 -0.050721247 0.09651634 -0.008765266 0.046323866 0.0452389 0.019084716
0.1074771 0.12025698 -0.052077394 0.009341528 0.01385192 0.04600702 0.06692131 0.062964655
-0.06470982 -0.051718578 0.04525756 0.0068260287 0.0780271 0.009971506 0.04305263 -0.03861786
-0.033159908 0.11268109 -0.03309098 0.058294073 -0.011014242 -0.10286491 -0.065753564 0.16097689
0.0023699945 0.008403299 -0.068547234 0.008429693 -0.09632477 -0.0018243298 -0.11487798 0.021399878
-0.052995004 0.0666752 -0.040432505 -0.09421898 0.040232215 0.10783415 -0.019366434 -0.005909756
00000000: 066e 773d efde 5ebd c73c 79bc 2628 bc3c
00000010: fbf3 25bd 1f9a 53bd c2dc 01bd f1dd 03be
00000020: 17cc 9abd afd4 82bd 94b7 b13a 01c1 6dbc
00000030: 1a08 f93c 9761 843d abff b93d 3c80 e7bc
00000040: 650d a53c c64e 85bd 6a5b 95bd 9be2 1dbc
00000050: 4daa b23d 1349 81bd d56d d13d 79d9 0bbd
00000060: 209d 5f3d 35eb 9a3c d4c6 79bc db6d f3bd
00000070: 0067 8abd 7768 a73c 8712 f8bb e8ac 59bd
00000080: 7225 41bd 863a dbbd 90b4 933d 55bf e4bd
00000090: ec59 22bd f696 79bd 7504 5a3d 2cf3 84bd
000000a0: 7a40 e53d 81a4 f5bd da45 423d 0f43 c03d
000000b0: b379 ba3d 0f1d 6ebd 8e93 f1bc 5541 9abd
000000c0: c0b9 50bd c01b 303b d255 06be 4611 953c
000000d0: 5c96 143e 388e 3c3d ebe8 6dbd 9560 093e
000000e0: 4eda 053d 4691 413c 9037 123e c3ba 273e
000000f0: 59db bcbd 6c9c 053e 8f14 c93d 1efc 8cbd
00000100: 3d0e 9cbc a5bd a6bd 4b11 063d 881e 14bd
00000110: 3f1b 08be d5c7 c53d ec5a 97bd 4262 b03c
00000120: 45d7 e23d 82de 933d 2819 a2bc a434 1c3e
00000130: 7f5f 773a f42f c03c a2ee 9dbd 552d 46bd
00000140: db03 b6bc d536 053e bec7 793d d8f6 94bc
00000150: f942 38bc b172 0ebd db3a 07bc 908c 89bc
00000160: 963d b73d 3c0c a8bc 34d3 8b3c 6774 36bb
00000170: 5ff8 043d 78be 443d 86e5 17bd e91c 79bc
00000180: a9bf 82bd c759 0d3d 32ea 473d ca81 bfbd
00000190: 33d3 18bb ac8e d23d 3b79 64ba 021f 81bd
000001a0: 7bf3 193d d4dc 95bd 220b 683d b174 bc3d
000001b0: 2889 0fbe 3026 e13a 8375 c1bd c097 08be
000001c0: 7402 07bd 8053 493d 7da2 08be 07bf b53c
000001d0: 401d ffbc 4d99 4c3d d55e 18bc 7e2c 813d
000001e0: bec9 50bd 5669 a9bd c461 103d fd3b cb3c
000001f0: 17e5 e43d a3dc 9cbd 2b45 a2bc d3f4 1bbd
00000200: 42d6 ea3c 3911 58bd 4c66 cd3b c2a8 703d
00000210: 1d85 cc3d 04b7 debd 6990 30bd e3ec 66bc
00000220: 4de1 8a3b be4e d7bc 3e85 6e3c af7f 6abd
00000230: 4182 6abc a9df 063d f065 e8bd 965d cdbd
00000240: 7b7c 04b9 7d9c ab3d 1acb 5b3d 1df3 a3bc
00000250: 01bd b9bd ce36 6f3d dc17 a7bd 0eb4 9f3d
00000260: d798 e8bb 560b e13d d02f 973d f20c ec3d
00000270: 2a11 133e 7841 923c 7d09 b9bc f627 dd3c
00000280: cc57 753d 1959 73bb 3512 e4bd bb74 d5bd
00000290: 42b3 b0bd 778e 3e3d a3e2 1abd b8fb bd3c
000002a0: 83a1 4fbd 1042 463d 2b20 183d 9154 cfbb
000002b0: df4f abbd a5ac 81bd b782 86bc cd74 06be
000002c0: e288 a3bd 0ccf 2c3d 128c 003d 149c c53c
000002d0: 3b54 49bd bf50 903c 6cd6 c03d 75c8 ebbc
000002e0: 38f7 3abe 24cd 643d efc4 c5bc b9ec d63d
000002f0: c1ab a6bd a278 f7bb 25a9 4e3e 946d 343e
00000300: a992 3f3d ac3d 013e 7e5b 40bd 899d 1c3d
00000310: d670 a73c 75f4 43bd 6bcc b3bc 7364 edbc
00000320: 34a0 88bd 0bd3 96bd 1d6f 153e 1f7f 023d
00000330: c411 083e c765 92bd c683 a8bc 552c 85bd
00000340: 78f7 6b3b 6b4d 9d3d 15c1 4fbd 5caa c53d
00000350: 319c 0fbc 18be 3d3d 6d4c 393d 8d57 9c3c
00000360: f41c dc3d 4b49 f63d 1b4f 55bd 350d 193c
00000370: 2af3 623c db71 3c3d 0a0e 893d 9df3 803d
00000380: 9586 84bd dcd6 53bd fe5f 393d e1ac df3b
00000390: accc 9f3d 875f 233c f457 303d c32d 1ebd
000003a0: afd2 07bd 58c5 e63d 688a 07bd c4c5 6e3d
000003b0: 1475 34bc d7aa d2bd cea9 86bd 20d7 243e
000003c0: e951 1b3b fead 093c 7e62 8cbd b21c 0a3c
000003d0: ec45 c5bd 5a1e efba 2545 ebbd cc4e af3c
000003e0: 4a11 59bd 028d 883d 8e9c 25bd e1f5 c0bd
000003f0: 89ca 243d 27d8 dc3d 5ba6 9ebc a0a6 c1bb

net.2.weight f4 [256, 256]
0.0039593144 -0.005557628 0.030157618 -0.035260685 0.037875757 -0.005228992 0.00030437871 -0.043648984
0.024030728 -0.013467678 -0.036582444 0.05617197 0.044449158 0.020261787 -0.016814206 0.0077418657
-0.015490706 0.042589944 -0.016178941 -0.0067670657 -0.038743816 -0.05477374 -0.035798285 0.0186063
0.015714133 -0.017197154 0.07062659 -0.04361204 0.016456077 0.05762821 0.050292335 0.05186178
-0.03560867 0.014088241 0.072798334 -0.064351805 -0.007888334 -0.057998765 -0.035063215 0.02330455
0.02060678 -0.015256009 0.02239378 0.0147931585 -0.002960514 -0.019747477 0.032512125 0.008014323
0.0523606 -0.044471044 -0.0076504108 0.024098296 0.0067484924 -0.018428454 0.011994279 -0.014225605
0.049353603 0.07903215 0.02427486 0.058063205 0.010340173 0.048512295 0.0101733655 -0.0030933067
-0.04402347 -0.00427375 0.05851965 0.023518154 0.06654668 -0.04634025 0.034354407 0.062381085
-0.012280515 -0.050135452 -0.0261531 -0.058940567 0.02748768 0.04228014 -0.037700403 0.0035862066
-0.004446533 0.05281005 0.0033474157 0.03459973 -0.035003696 0.045707375 0.024715781 0.021596776
0.06778197 0.017373338 0.027494079 0.07942392 -0.026608499 -0.021760898 0.00047217205 -0.049812507
0.033363212 -0.022270279 0.057197943 0.038316894 0.08005991 0.04154233 0.017418467 0.048912704
0.027813658 -0.011942564 -0.04085462 -0.011980831 0.054847706 -0.029889233 0.06805485 0.054713335
0.065046415 -0.024030186 0.010951186 0.03074024 -0.019675853 -0.012176802 -0.01884879 0.057410475
-0.06298481 0.061299097 -0.007838236 0.018671371 -0.0066828984 0.02705632 -0.061368275 0.034554437
-0.021712648 0.05584447 -0.0486517 0.03505021 -0.01349633 -0.028180145 0.020268805 -0.03283774
0.05355644 -0.037250306 -0.0530911 -0.04755714 -4.1423526e-05 -0.026326388 0.04729255 0.008067817
0.01693299 0.029560981 0.03982283 -0.03143296 0.05638787 0.03441977 -0.00937849 0.037494723
-0.025531966 -0.032854438 0.06645306 -0.025567884 -0.009950786 -0.044771876 -0.028404754 -0.0018224812
-0.060694333 -0.03227426 0.013910187 -0.011046522 -0.04758084 -0.028523015 -0.056747437 -0.006822815
-0.049526345 -0.023882242 -0.055641215 -0.025956364 0.0036046065 0.010898631 0.03323961 -0.0072666816
-0.06452797 -0.041897852 -0.02420812 0.0568342 0.0019062676 0.047810804 -0.01001902 0.06305166
0.019401029 0.022978237 -0.0065721422 0.01977327 -0.0202282 -0.021576768 -0.06622018 -0.053042307
-0.000113884715 0.0041961884 0.03971581 0.03381307 -0.05569543 -0.037739348 -0.042510413 0.061183725
-0.060014438 -0.055963498 0.04031069 0.0058545186 0.029027836 -0.046772983 0.061919585 -0.04891601
-0.051032033 0.04134973 -0.005458906 -0.048599247 -0.06091249 -0.0019099152 0.06613852 0.019636242
0.041945625 0.044754677 -0.022807514 0.0055263033 -0.045340717 0.038446344 0.028542684 -0.008840605
-0.05103038 -0.039360296 -0.044284787 0.03392844 0.0142899975 -0.007060356 -0.02570216 0.018537728
0.054083973 0.012979016 0.031547125 0.015041812 0.07066685 0.066964634 -0.057855282 -0.014678688
0.032942966 -0.00090455223 0.04128853 -0.049753137 -0.017935097 0.014848959 0.031989492 -0.028635718
0.018775884 -0.052737296 -0.0269136 0.04693878 0.036635786 0.04687571 -0.02135295 0.040310934
00000000: 23bd 813b c31c b6bb 1c0d f73c 826d 10bd
00000010: 9c23 1b3d f757 abbb 0595 9f39 47c9 32bd
00000020: 17dc c43c 89a7 5cbc 79d7 15bd 9414 663d
00000030: 5210 363d 0cfc a53c f2bd 89bc 7aaf fd3b
00000040: bbcc 7dbc cb72 2e3d b389 84bc 43be ddbb
00000050: d6b1 1ebd 6e5a 60bd 39a1 12bd 3d6c 983c
00000060: edba 803c 0ce1 8cbc aca4 903d 8aa2 32bd
00000070: e5ce 863c 8f0b 6c3d 56ff 4d3d 056d 543d
00000080: 66da 11bd 5ed2 663c 4b17 953d e1ca 83bd
00000090: 123e 01bc 1d90 6dbd 729e 0fbd 2fe9 be3c
000000a0: 8dcf a83c 57f4 79bc 2973 b73c 015f 723c
000000b0: 2f05 42bb 76c5 a1bc 6f2b 053d 824e 033c
000000c0: 1278 563d 4527 36bd 4cb0 fabb ca69 c53c
000000d0: 7522 dd3b 45f7 96bc a783 443c 8312 69bc
000000e0: 0127 4a3d 9cdb a13d 12dc c63c afd3 6d3d
000000f0: d469 293c d4b4 463d 30ae 263c 13b9 4abb
00000100: f451 34bd d00a 8cbb 4db2 6f3d 25a9 c03c
00000110: a049 883d 46cf 3dbd 35b7 0c3d 4f83 7f3d
00000120: 3734 49bc d55a 4dbd 073f d6bc aa6b 71bd
00000130: d82d e13c f12d 2d3d bd6b 1abd 9006 6b3b
00000140: 39b4 91bb 5a4f 583d 5160 5b3b 72b8 0d3d
00000150: 0960 0fbd a837 3b3d c078 ca3c b9eb b03c
00000160: 46d1 8a3d 8852 8e3c 433b e13c 02a9 a23d
00000170: 11fa d9bc e943 b2bc dc8d f739 3308 4cbd
00000180: dda7 083d 2970 b6bc 6448 6a3d 2df2 1c3d
00000190: 73f6 a33d 4a28 2a3d 2cb1 8e3c b058 483d
000001a0: 78d9 e33c beaa 43bc 2d57 27bd 3f4b 44bc
000001b0: fda7 603d 44da f4bc 5760 8b3d 171b 603d
000001c0: 0e37 853d f4da c4bc 9a6c 333c f5d2 fb3c
000001d0: 412f a1bc 3681 47bc c768 9abc 3f27 6b3d
000001e0: 2efe 80bd c314 7b3d f26b 00bc b4f4 983c
000001f0: 37fc dabb 37a5 dd3c 4d5d 7bbd f488 0d3d
00000200: b9de b1bc 2cbd 643d 0147 47bd cf90 0f3d
00000210: b61f 5dbc 0cda e6bc c40a a63c de80 06bd
00000220: ff5d 5b3d c793 18bd 0e76 59bd 47cb 42bd
00000230: 2cbe 2db8 70aa d7bc d5b5 413d e12e 043c
00000240: 0eb7 8a3c df29 f23c 441d 233d d9bf 00bd
00000250: f8f6 663d bffb 0c3d 3da8 19bc 1194 193d
00000260: 6a28 d1bc 6092 06bd 8b18 883d bd73 d1bc
00000270: 9f08 23bc b762 37bd 16b1 e8bc 52e0 eeba
00000280: 9f9a 78bd 0432 04bd 8ee7 633c 79fc 34bc
00000290: 20e4 42bd 19a9 e9bc 0070 68bd ec91 dfbb
000002a0: 23dc 4abd b1a4 c3bc 0be8 63bd 71a2 d4bc
000002b0: 433b 6c3b 2c90 323c 4226 083d 581d eebb
000002c0: 3e27 84bd 159d 2bbd 1b50 c6bc faca 683d
000002d0: badb f93a 43d5 433d d126 24bc 3b21 813d
000002e0: e8ee 9e3c db3c bc3c 205b d7bb 8dfb a13c
000002f0: 9cb5 a5bc c3c1 b0bc 729e 87bd e442 59bd
00000300: 64d5 eeb8 2e80 893b 0cad 223d 937f 0a3d
00000310: e420 64bd 9394 1abd 661f 2ebd c99b 7a3d
00000320: b3d1 75bd fb39 65bd d21c 253d 43d7 bf3b
00000330: c9cb ed3c 0795 3fbd 649f 7d3d 275c 48bd
00000340: f706 51bd 565e 293d 9fe0 b2bb 0110 47bd
00000350: 607f 79bd 1f56 faba a273 873d 2fdc a03c
00000360: 2dcf 2b3d ae50 373d d3d6 babc fe15 b53b
00000370: 30b7 39bd ea79 1d3d 59d2 e93c 2fd8 10bc
00000380: 3b05 51bd 4338 21bd f763 35bd 8cf8 0a3d
00000390: 9820 6a3c 8f5a e7bb 568d d2bc 6fdc 973c
000003a0: 2887 5d3d f0a5 543c 8f37 013d ef71 763c
000003b0: c8b9 903d c124 893d a9f9 6cbd e17e 70bc
000003c0: 34ef 063d 791f 6dba 291e 293d f2c9 4bbd
000003d0: a0ec 92bc 0c49 733c 6a07 033d 7495 eabc
000003e0: e2cf 993c 1003 58bd e979 dcbc e142 403d
000003f0: 680f 163d bf00 403d 62ec aebc 141d 253d

net.2.bias f4 [256]
-0.03729401 0.09593722 0.0062961807 -0.042359173 0.025198843 -0.0156956 -0.010726218 0.060256906
-0.084899515 -0.08482713 -0.042953145 0.041342046 -0.069101766 0.06315117 -0.14809902 -0.014529964
-0.104389586 -0.116702035 0.031226963 -0.08160483 -0.0065172077 0.010503172 -0.0011678216 -0.026639976
0.0518133 0.029111475 -0.042782933 -0.12763235 0.07833821 -0.018557582 0.05061618 -0.03197269
0.107814595 0.112785585 -0.10821729 -0.011131905 -0.02964354 0.033480138 0.035346813 -0.024653642
-0.06878283 -0.05200159 -0.10993358 0.045941036 -0.028289907 -0.050803166 -0.045428738 -0.023078687
0.106690295 0.037281323 -0.022851331 -0.028789788 -0.0593415 -0.07117999 0.0052301195 -0.03792579
-0.026302192 0.006648885 -0.016313344 0.0027109385 -0.05872394 -0.027020346 0.07820792 -0.044597078
-0.0977343 0.0036761921 -0.014449062 -0.044015404 -0.0824314 0.0601258 -0.020225136 0.033003066
0.024171533 0.063362256 0.0054323687 -0.068697035 0.082307406 -0.01103307 -0.11431327 -0.03849023
-0.016357092 -0.053775035 -0.17572714 -0.027454093 -0.018439826 0.11086114 0.10310663 -0.051553007
-0.009958241 0.11741328 -0.09336151 -0.0696947 0.020849474 0.0123008285 0.060913235 0.060894687
-0.017883388 0.07331815 -0.0015064017 -0.07842388 0.02727418 0.05786765 -0.050504476 0.048164353
0.06948846 -0.1446794 -0.042350452 -0.048854776 0.110728346 -0.016418051 0.017590567 0.09501403
-0.017378602 0.06904757 -0.059565447 -0.013739586 0.06284012 -0.082005195 0.083882265 0.05856923
0.082110345 -0.14540137 0.05925135 -0.05165668 0.059278794 0.06018437 0.06994899 -0.1454544
-0.045194 0.059889693 0.051817298 -0.024139341 -0.009634736 0.015865099 0.0061668786 -0.11348132
0.06249519 -0.04854822 0.08934471 -0.024994392 -0.013795541 0.06713101 0.13342796 -0.03282537
0.05577719 -0.046543133 0.022902058 -0.11233697 -0.01874285 0.03606243 -0.024221042 0.10366989
-0.07720415 -0.0111387335 -0.03422925 -0.0609382 0.022609469 -0.031833142 0.023073679 -0.04253885
-0.06457234 -0.043090265 -0.06810934 0.040738974 0.0401092 -0.030218227 0.045789756 0.07730412
-0.09866496 0.071426995 -0.052802995 0.034905083 0.128572 -0.023437245 0.018982809 0.09043127
0.13669664 0.010723873 0.07094943 -0.015530383 0.02383479 -0.008082688 0.014930039 0.06027099
-0.12702164 -0.14106643 0.16415022 -0.091999464 -0.009573878 0.015595388 -0.01668866 0.06455896
-0.03569396 -0.10954439 0.049896054 0.034231324 -0.038830705 0.018521294 0.026367487 0.08420311
0.033509426 -0.046600845 -0.010724914 -0.12648761 -0.050869133 0.004576313 -0.057060868 -0.07238477
0.034058537 0.005570932 0.08417641 -0.0067207306 0.041124932 -0.06298946 0.0607708 0.06995177
-0.09788302 0.017764723 -0.014515741 -0.0067269523 -0.10402363 0.05170918 0.00023796636 -0.098853625
-0.04295587 -0.04761384 -0.04435118 0.017132396 0.045322113 0.11111006 -0.016072774 -0.09559425
-0.007270137 0.0066362214 0.07820456 0.066042416 -0.120446324 0.072574265 -0.060345788 0.076748535
-0.022814358 -0.020881137 0.12599637 -0.017939063 -0.051436022 -0.018689515 -0.013423693 -0.04018879
0.04138214 -0.1511005 0.016941635 -0.018844724 -0.001837172 0.10887076 0.08890829 0.010917771
00000000: 9bc1 18bd bc7a c43d 3150 ce3b d080 2dbd
00000010: ce6d ce3c 0f94 80bc 05bd 2fbc f2cf 763d
00000020: ccdf adbd d9b9 adbd a3ef 2fbd 4756 293d
00000030: 3a85 8dbd 6755 813d 45a7 17be 160f 6ebc
00000040: 35ca d5bd 7a01 efbd b0cf ff3c 6f20 a7bd
00000050: 4d8e d5bb 7f15 2c3c 9711 99ba 143c dabc
00000060: 2f3a 543d 307b ee3c 283d 2fbd 0eb2 02be
00000070: c96f a03d 1206 98bc e952 4f3d ccf5 02bd
00000080: e6cd dc3d 21fc e63d 07a1 ddbd 9862 36bc
00000090: 02d7 f2bc 7822 093d d2c7 103d 6ff6 c9bc
000000a0: 03de 8cbd 9fff 54bd db24 e1bd ab2c 3c3d
000000b0: 3cc0 e7bc fb16 50bd 7c13 3abd 840f bdbc
000000c0: 7180 da3d 4db4 183d b732 bbbc 90d8 ebbc
000000d0: 1310 73bd d1c6 91bd 6c61 ab3b 1358 1bbd
000000e0: b277 d7bc e4de d93b 90a3 85bc 00aa 313b
000000f0: 8488 70bd c659 ddbc 792b a03d 6dab 36bd
00000100: ec28 c8bd 45ec 703b c2bb 6cbc 7f49 34bd
00000110: cbd1 a8bd 7946 763d 2faf a5bc 392e 073d
00000120: 6103 c63c 12c4 813d 0302 b23b 08b1 8cbd
00000130: c990 a83d 0dc4 34bc 131d eabd eea7 1dbd
00000140: 4fff 85bc 3643 5cbd d1f1 33be 68e7 e0bc
00000150: 1e0f 97bc 2a0b e33d 9229 d33d 3f29 53bd
00000160: e427 23bc 6076 f03d 5234 bfbd 18bc 8ebd
00000170: 84cc aa3c 6a89 493c 2880 793d b56c 793d
00000180: 2f80 92bc d427 963d 7472 c5ba b39c a0bd
00000190: 1a6e df3c a106 6d3d c8dd 4ebd fc47 453d
000001a0: f74f 8e3d d626 14be ab77 2dbd f21b 48bd
000001b0: 8bc5 e23d 267f 86bc 181a 903c b796 c23d
000001c0: 925d 8ebc d068 8d3d e6fa 73bd 001c 61bc
000001d0: 52b2 803d 57f2 a7bd 77ca ab3d 4ae6 6f3d
000001e0: 7829 a83d 19e4 14be 8bb1 723d f495 53bd
000001f0: 52ce 723d e383 763d 6b41 8f3d 00f2 14be
00000200: 581d 39bd e54e 753d 603e 543d debf c5bc
00000210: 03db 1dbc 86f7 813c 8713 ca3b e568 e8bd
00000220: f5fa 7f3d 80da 46bd 5cfa b63d 0ac1 ccbc
00000230: b106 62bc fc7b 893d 57a1 083e e573 06bd
00000240: 9f76 643d 03a4 3ebd 199d bb3c ed10 e6bd
00000250: 9b8a 99bc 33b6 133d 356b c6bc e150 d43d
00000260: 361d 9ebd 3c7f 36bc f833 0cbd 569a 79bd
00000270: 7e37 b93c 7863 02bd 0305 bd3c 383d 2ebd
00000280: 813e 84bd 6b7f 30bd e97c 8bbd e9dd 263d
00000290: 8b49 243d 378c f7bc 0a8e 3b3d 9f51 9e3d
000002a0: db10 cabd 5148 923d f447 58bd a2f8 0e3d
000002b0: 61a8 033e 77ff bfbc d681 9b3c 0834 b93d
000002c0: 34fa 0b3e 2fb3 2f3c ef4d 913d 2673 7ebc
000002d0: 2d41 c33c 406d 04bc 1f9d 743c b7de 763d
000002e0: f611 02be b873 10be ff16 283e 376a bcbd
000002f0: c1db 1cbc cc83 7f3c a8b6 88bc 7d37 843d
00000300: d433 12bd cf58 e0bd ce5f 4c3d 2536 0c3d
00000310: f20c 1fbd f8b9 973c a100 d83c ae72 ac3d
00000320: 2e41 093d 87e0 3ebd 8db7 2fbc f885 01be
00000330: 275c 50bd e5f4 953b a8b8 69bd 773e 94bd
00000340: f780 0b3d 5d8c b63b af64 ac3d 9339 dcbb
00000350: 9e72 283d 9e00 81bd cdea 783d e042 8f3d
00000360: e576 c8bd 5387 913c 6ed3 6dbc c46d dcbb
00000370: 570a d5bd 01cd 533d 9c86 7939 c573 cabd
00000380: 7ff2 2fbd bb06 43bd 95a9 35bd 3d59 8c3c
00000390: aea3 393d ac8d e33d 0dab 83bc ebc6 c3bd
000003a0: 543a eebb a974 d93b b629 a03d 3f41 873d
000003b0: 90ac f6bd d1a1 943d 252d 77bd 562e 9d3d
000003c0: 2de5 babc eb0e abbc 3105 013e f1f4 92bc
000003d0: 94ae 52bd c11a 99bc 0def 5bbc 009d 24bd
000003e0: 5280 293d 17ba 1abe 2fc9 8a3c 4060 9abc
000003f0: 43cd f0ba a2f7 de3d 8d15 b63d 73e0 323c

net.4.weight f4 [3, 256]
-0.043346763 0.0708113 0.044080462 -0.06451417 0.037622314 -0.034048982 -0.06171803 0.0566803
0.06470339 0.010732063 -0.07278138 0.05987311 0.0033145656 0.08013747 -0.03757118 -0.03937495
-0.00024141763 -0.056455966 0.03779684 0.0329139 -0.03900159 -0.060898256 -0.015878752 -0.06350972
0.07075707 -0.020582769 -0.07556584 -0.053767946 -0.040728837 -0.05841605 -0.11189209 0.007320638
0.013065605 0.009797811 -0.083656594 -0.05934056 -0.034663904 0.019125247 0.027048847 0.03619132
-0.0022390073 0.027653482 -0.070969164 -0.042702403 -0.07439563 -0.060748387 -0.02567086 0.033039488
0.08583224 -0.051785897 0.051860217 -0.026706066 -0.04607256 -0.065195575 -0.025282152 -0.042307533
0.016948149 -0.08357465 -0.06765456 0.053246927 -0.039714828 -0.03362477 -0.016333949 -0.064942636
-0.0015802362 0.04978951 -0.018300744 0.03045639 -0.07226674 -0.019607205 -0.024525126 0.06889167
0.034943968 -0.0116461525 -0.021218138 0.0517925 -0.012085704 -0.05446445 -0.058813184 -0.026800105
0.01741303 -0.08247787 -0.110549 0.0027355785 0.12449025 0.072911076 0.06746854 0.04006074
0.021250162 0.052648313 -0.07549288 -0.0056289337 -0.04029796 0.0023601106 -0.0319764 0.074605994
-0.0787039 -0.045403592 -0.013038427 -0.05284185 -0.12304891 0.061955966 0.062488176 -0.0068810405
-0.012453426 -0.03662316 -0.046927083 0.027098546 0.0029431114 -0.060778305 0.017992742 0.09920253
0.06689849 -0.00030202253 0.06409571 0.0021125018 0.074766204 -0.057301052 0.08121779 -0.06054506
0.029303456 -0.09229862 -0.05270814 -0.027705664 0.00999033 0.035078168 0.08639382 -0.052628733
0.0044288957 -0.023974625 0.016572187 -0.02587237 -0.06393561 0.021900099 -0.068027936 -0.026091069
-0.024121571 -0.0041872715 0.07974378 -0.06230634 -0.008650126 0.029824525 0.054568194 0.044870123
0.010679036 0.013930927 -0.054997906 -0.0067414586 0.038581382 0.040996972 -0.02772002 0.17030303
0.035451557 0.009547463 -0.0033026002 -0.04234975 -0.077999614 -0.0040429337 -0.030943252 0.041884232
-0.009440057 0.023445377 -0.034968708 -0.06610847 -0.016293861 0.016272822 0.035638683 0.104022965
0.0061692735 0.07071299 0.012668465 -0.00209528 0.083763726 -0.05226094 -0.07441608 -0.018933976
0.07054707 0.07795164 -0.026475515 0.011078172 -0.11500349 -0.03849669 0.018593876 0.04222031
-0.055445738 -0.013845574 0.045056455 0.041547995 0.014547512 0.025016174 -0.015111208 -0.06336234
-0.040565126 -0.052344628 0.013696511 0.09923587 -0.016152764 0.024836201 0.055748757 0.007169462
0.07122592 0.02952997 0.050720077 -0.06332044 0.059152912 0.018885514 -0.07468596 -0.00305808
0.03838368 0.017826442 0.036722973 -0.018715775 0.04981143 -0.046131734 0.05703276 0.06827285
-0.013671845 0.1133644 -0.053070556 0.047260236 0.020874176 0.046026234 0.046023265 -0.06485107
0.028990783 -0.029455043 -0.075188614 0.022295669 0.07141803 0.007643818 0.04892791 -0.12091803
0.015369748 -0.036611848 -0.05313349 -0.033750333 -0.0645948 0.021289779 0.055579495 0.07892651
0.0535684 0.032810308 0.06974924 0.06952044 -0.03941973 -0.022650141 0.058423784 0.03806131
0.039871637 -0.07265315 -0.040733896 0.0063260705 0.048092995 0.08007898 0.005399962 0.0036729411
00000000: 608c 31bd 8405 913d b78d 343d 0120 84bd
00000010: db19 1a3d f276 0bbd 0ccc 7cbd 9a29 683d
00000020: 3683 843d 89d5 2f3c 670e 95bd 823d 753d
00000030: 2f39 593b 1d1f a43d 3de4 19bd a147 21bd
00000040: 0d25 7db9 5f3e 67bd dcd0 1a3d bad0 063d
00000050: 22c0 1fbd 7370 79bd 2814 82bc 6211 82bd
00000060: 15e9 903d 329d a8bc 43c2 9abd c73b 5cbd
00000070: 48d3 26bd ab45 6fbd ae27 e5bd f6e1 ef3b
00000080: 1f11 563c ff86 203c 2654 abbd 160f 73bd
00000090: bdfb 0dbd 8dac 9c3c 8b95 dd3c 593d 143d
000000a0: 4fbc 12bb 8e89 e23c 4858 91bd b7e8 2ebd
000000b0: bc5c 98bd 4dd3 78bd b24b d2bc 6a54 073d
000000c0: d0c8 af3d 731d 54bd 616b 543d aec6 dabc
000000d0: 95b6 3cbd 4285 85bd 841c cfbc aa4a 2dbd
000000e0: d8d6 8a3c 3029 abbd 798e 8abd 7319 5a3d
000000f0: 04ac 22bd 20ba 09bd c6ce 85bc a500 85bd
00000100: ee1f cfba 16f0 4b3d 71eb 95bc ae7f f93c
00000110: 9600 94bd 4a9f a0bc ebe8 c8bc 1317 8d3d
00000120: 6821 0f3d 81cf 3ebc a9d1 adbc 5f24 543d
00000130: 1e03 46bc 1d16 5fbd 18e6 70bd e58b dbbc
00000140: c5a5 8e3c 28ea a8bd 8467 e2bd 6447 333b
00000150: bff4 fe3d 6752 953d f22c 8a3d bb16 243d
00000160: d214 ae3c c2a5 573d 039c 9abd eb72 b8bb
00000170: 790f 25bd 16ac 1a3b b0f9 02bd 07cb 983d
00000180: 832f a1bd 1ef9 39bd 209f 55bc b270 58bd
00000190: 1101 fcbd 8ac5 7d3d 9af3 7f3d 5a7a e1bb
000001a0: 7409 4cbc 2b02 16bd 9d36 40bd c5fd dd3c
000001b0: 37e1 403b acf2 78bd 8465 933c b22a cb3d
000001c0: 1302 893d c758 9eb9 9d44 833d e671 0a3b
000001d0: 061f 993d 82b4 6abd 8355 a63d 19fe 77bd
000001e0: cd0d f03c 0f07 bdbd 7ee4 57bd fdf6 e2bc
000001f0: 7bae 233c 20ae 0f3d 3eef b03d 3a91 57bd
00000200: 4520 913b 6f66 c4bc 65c2 873c 4bf2 d3bc
00000210: acf0 82bd d667 b33c 3b52 8bbd f0bc d5bc
00000220: 9a9a c5bc 6135 89bb b550 a33d ef34 7fbd
00000230: 42b9 0dbc 9052 f43c e682 5f3d bcc9 373d
00000240: 20f7 2e3c 8b3e 643c 7c45 61bd 74e7 dcbb
00000250: 8307 1e3d 71ec 273d 1815 e3bc eb63 2e3e
00000260: a735 113d f66c 1c3c 7070 58bb ee76 2dbd
00000270: 43be 9fbd 967a 84bb b47c fdbc cd8e 2b3d
00000280: 78aa 1abc 8510 c03c 593b 0fbd e163 87bd
00000290: b47a 85bc 954e 853c def9 113d fe09 d53d
000002a0: 9e27 ca3b f9d1 903d 658f 4f3c f750 09bb
000002b0: 518c ab3d 910f 56bd 7567 98bd 6d1b 9bbc
000002c0: fb7a 903d 1ca5 9f3d 2ee3 d8bc 3981 353c
000002d0: f386 ebbd b5ae 1dbd 2f52 983c 34ef 2c3d
000002e0: 121b 63bd 8cd8 62bc 1e8d 383d 3b2e 2a3d
000002f0: b058 6e3c b8ee cc3c 0095 77bc 1dc4 81bd
00000300: 9e27 26bd 5267 56bd 5567 603c 2d3c cb3d
00000310: cd52 84bc 4a75 cb3c cf58 643d ceed ea3b
00000320: e5de 913d d6e8 f13c dbbf 4f3d 26ae 81bd
00000330: 534a 723d cbb5 9a3c f4f4 98bd 126a 48bb
00000340: 3538 1d3d c208 923c d46a 163d d351 99bc
00000350: 1207 4c3d a1f4 3cbd 2f9b 693d a3d2 8b3d
00000360: e0ff 5fbc 982b e83d 8360 59bd f393 413d
00000370: 5200 ab3c 0186 3c3d e482 3c3d a3d0 84bd
00000380: 147e ed3c b44b f1bc 7dfc 99bd 68a5 b63c
00000390: 9e43 923d fe78 fa3b a268 483d dfa3 f7bd
000003a0: 65d1 7b3c 4ef6 15bd 81a2 59bd ca3d 0abd
000003b0: 474a 84bd e767 ae3c 53a7 633d 39a4 a13d
000003c0: 8a6a 5b3d 1a64 063d b1d8 8e3d bc60 8e3d
000003d0: 9576 21bd ca8c b9bc c74d 6f3d 2de6 1b3d
000003e0: 7150 233d 2dcb 94bd 96d8 26bd ed4a cf3b
000003f0: 29fd 443d 7300 a43d 2af2 b03b bab5 703b

net.4.bias f4 [3]
0.023301696 -0.010753677 -0.085488126
00000000: 33e3 be3c 3130 30bc 6614 afbd
